inpainting/models/model_epoch_9.pth (torch, 15939 bytes, 4 tensors)

encoder.conv1.weight f4 [64, 3, 3, 3]
000000 51 76 03 bd cf 90 4e 3e 17 c6 1c be ee 0a a9 3d
       -0.032095257 0.20172428 -0.1530994 0.08254038
000010 99 27 c8 3d b6 5b af 3b 43 2c b1 3d 4e 58 da bc
       0.09773178 0.005351509 0.086510204 -0.026653435
000020 ca 46 fe 3d ea 35 e4 bd f6 9f 1a be 5b dc 86 3d
       0.12415846 -0.11143096 -0.15100083 0.06584998
000030 01 45 b4 3d a2 75 87 ba 85 b2 8d bd 71 d0 04 be
       0.08802224 -0.001033474 -0.069188155 -0.12970139
000040 0f 99 49 3e f6 77 b7 3d 9d ec a0 3b 33 9a 64 3d
       0.19687293 0.089584276 0.004911019 0.05581112
000050 8a 7a b1 bd f4 13 6a 3d d1 c3 08 3e 46 47 3f 3e
       -0.086659506 0.057147935 0.13355948 0.18679532
000060 33 74 ec ba b7 c0 2b 3d e0 7b e1 bd 3d d7 a3 3d
       -0.0018040001 0.041931834 -0.110099554 0.08000038
000070 80 a1 d1 bb 9e 3a 78 bd cf 38 e7 bd fa 86 4f 3e
       -0.006397426 -0.060602777 -0.11290132 0.20266333
000080 0b 3d 4f 3c 02 e7 c8 bc 4e 57 8d bc d3 bc 0b be
       0.012648831 -0.024524216 -0.017253544 -0.1364625
000090 1d 35 3b bd 10 93 d2 3d bf 4f 6c 3b f8 55 85 3c
       -0.04570495 0.10281956 0.0036058275 0.016276345
0000a0 2e 6c 33 3e f8 d4 a3 3d e9 56 77 3d 3b 1a f7 bd
       0.17521736 0.07999605 0.06038562 -0.1206555
0000b0 f6 f1 1f be dd 7a 2f be 8c 83 fb 3d 9b 10 70 bd
       -0.15619645 -0.17136712 0.1228095 -0.058609586
0000c0 36 bb 43 3e a9 1a fe bd 78 79 3d bc c2 f8 31 be
       0.19114384 -0.12407429 -0.011564605 -0.1738005
0000d0 8a 3e ab bd 72 f6 e4 bd 50 f2 2c 3e af e7 33 3d
       -0.08361538 -0.11179818 0.1688931 0.043922123
0000e0 e3 05 34 bc 34 10 a8 3d 7b 6c d8 3c 58 7e 0d bd
       -0.010987732 0.082062155 0.026418915 -0.03454432
0000f0 21 0e 43 3e dc 0d c4 bd ba 50 ff bd 4a 20 a2 3d
       0.19048359 -0.09572956 -0.12466569 0.07916315
000100 c7 d8 24 be 70 09 81 3c 4c 26 b8 3d 85 af dc 3d
       -0.16098319 0.01575157 0.089916795 0.10775665
000110 70 b3 0b be e1 a1 e3 bb c3 08 17 bd 43 9f c2 3d
       -0.13642669 -0.0069467877 -0.03687359 0.09503033
000120 75 1d 87 3d f4 59 15 be d7 9b c4 bd 4d a4 89 bd
       0.06597415 -0.14585096 -0.096000366 -0.06720791
000130 3a 6e 71 bd 29 40 34 3d 62 e2 82 bc 87 fa d6 bc
       -0.05894301 0.0440065 -0.015977088 -0.026242508
000140 27 86 c7 bd 51 ae 02 3d 73 e6 cd bd b3 33 ec bd
       -0.097423844 0.031904522 -0.1005372 -0.11533298
000150 0a be e7 3c ea c7 bb bc 66 e4 4b be d3 3d 3c be
       0.02828886 -0.022922475 -0.19911346 -0.18382959
000160 7e 13 06 3e d4 64 ad 3d 61 e3 a5 bc 5a 8e 0b be
       0.13093373 0.08466497 -0.020250024 -0.13628522
000170 ba 88 23 3d 93 14 2f be 34 25 b9 bd 72 8d 00 3e
       0.039925314 -0.17097692 -0.09040299 0.12553957
000180 a5 76 56 bd 71 14 cc 3c 75 b7 a8 3d 98 b2 30 be
       -0.052359242 0.024912091 0.08238117 -0.17255628
000190 e9 8f c0 3d 0b 10 26 bc 01 c8 1e be 8a 15 17 3d
       0.09402449 -0.010135661 -0.15505983 0.036885776
0001a0 91 31 9b bd c3 49 ae 3d a4 08 9e bd 90 76 2b 3e
       -0.075778134 0.08510163 -0.07716492 0.16744447
0001b0 67 0b 31 3e 23 de 7f 3d 94 3c 75 3d d1 b7 82 bd
       0.17289506 0.062467705 0.059872225 -0.063827164
0001c0 3c 0b cc bc 6a 15 f2 bd 85 db dc 3d 11 db 46 bd
       -0.0249077 -0.11820491 0.107840575 -0.04854876
0001d0 c3 18 de bd 27 41 82 bc 77 4a 25 3e 11 7e 70 bc
       -0.10844567 -0.015900208 0.16141687 -0.014678494
0001e0 52 bd 23 3d af c8 d2 bc 9c b2 42 3d df 81 39 3e
       0.03997547 -0.025730459 0.047533616 0.18115948
0001f0 7e 3f 07 be b8 cd 0a 3d 37 d4 dc 3d e0 8c 24 3e
       -0.13207814 0.033887595 0.10782664 0.16069365
000200 67 84 ee 3d 47 64 29 bd 00 27 13 be c2 80 8c 3d
       0.116463475 -0.041355398 -0.14370346 0.06860496
000210 9a 22 5a 3d 9b df b1 bd 7f 9d dc 3d b3 6b 27 3e
       0.053255655 -0.086852275 0.107722275 0.16349678
000220 49 dc 16 be d3 33 14 3e 9d 6c 95 bd 9c ac b6 3d
       -0.1473247 0.14472894 -0.07296107 0.089196414
000230 4e ac 96 bd 35 e3 e8 bd 5b f5 04 be 0a b4 81 3c
       -0.07357083 -0.11371461 -0.1298422 0.01583292
000240 bb a0 44 3e 68 7e bf bc 35 f8 3d bd 07 2c f8 3a
       0.19201939 -0.023375705 -0.046379287 0.001893402
000250 c9 9e 0d bd 90 60 c2 bd 36 6d 04 bd 52 86 78 bd
       -0.034575257 -0.09491074 -0.032330714 -0.060674973
000260 1f fb 91 3d 6a e2 0a 3e 6a 13 1a 3d 6a b4 c9 3d
       0.07127976 0.13562933 0.03761617 0.098488644
000270 a3 86 1d 3e b6 9c 3b 3e cc ae ec 3d 0f 7f c1 bb
       0.15383391 0.18321499 0.11556777 -0.005905039
000280 70 d2 05 3e 54 1b 8f 3d 85 24 74 bc 07 56 0a be
       0.13068557 0.06987634 -0.014901285 -0.1350938
000290 54 11 80 bd 0c ff 1e be 40 2c 12 3e a6 15 01 be
       -0.06253305 -0.1552698 0.14274693 -0.12605914
0002a0 8c 93 dd 3c 1f 66 a9 3d 95 ae 01 bc fa 3a 03 3e
       0.027047895 0.08271431 -0.007915159 0.12815467
0002b0 af 06 bc 3d 5b 24 84 bd 85 13 7b 3d 1d 28 e8 bc
       0.09180962 -0.06452247 0.061297912 -0.02833944
0002c0 48 ba 05 3e d2 9f 55 3d 56 17 19 3e bd 2d 07 be
       0.13059342 0.05215437 0.14950308 -0.13201042
0002d0 6d 39 0c bd 94 a5 1d bb c2 7e 9d 3c 5d 2f 3d 3e
       -0.034234453 -0.002405499 0.019225482 0.18475099
0002e0 51 28 f0 3d 25 dc 37 be 60 38 03 bc b5 65 44 3e
       0.1172644 -0.17955072 -0.008009046 0.19179423
0002f0 8d 97 fc 3d 93 c5 d4 3d a2 87 0e be 61 30 e1 3d
       0.123335935 0.10389247 -0.13918927 0.10995556
000300 5b 9d 96 3d 98 90 ac 3d b9 dc 0a 3e 75 a9 5b be
       0.07354232 0.084260166 0.13560762 -0.21451361
000310 d1 2b ae 3d 8a e4 c7 bd a7 e1 7e bd 8e 56 25 be
       0.08504451 -0.09760387 -0.062226918 -0.16146299
000320 60 e1 f9 bd 40 3d 1c 3e df 76 26 3e 35 a1 2b be
       -0.1220119 0.1525774 0.16256283 -0.16760714
000330 76 8b 62 3c fe 66 18 be cd f7 b9 bd 99 73 ae 3d
       0.013827195 -0.14883038 -0.090804674 0.08518142
000340 28 93 48 be 93 e4 bd 3d d7 a5 fc 3d d9 8d 0f be
       -0.19587386 0.09272113 0.12336319 -0.14018954
000350 70 ab 0e bd 55 c0 7c bc 23 70 e8 bb 7b 56 54 be
       -0.034831464 -0.015426715 -0.007093446 -0.20736115
000360 87 16 88 3d 6e dc 21 3d 57 ee b7 3d 08 c1 2c be
       0.06644922 0.03951686 0.089810066 -0.1687051
000370 08 ba 50 be 50 2f 2e be 20 92 ef bd ee f5 55 bd
       -0.20383465 -0.17010236 -0.11697793 -0.05223649
000380 7a 3d a0 bc 1c 82 21 be 04 18 8c 3d 14 c9 f6 3d
       -0.019560564 -0.15772289 0.06840518 0.12050071
000390 fe c7 4d be ea b6 f9 bd e8 6d ea bd 98 1a 0d 3e
       -0.20095822 -0.12193091 -0.11446744 0.13779676
0003a0 12 5e 63 3c ad 8e d0 3d 83 f9 9b 3d 59 65 99 bd
       0.013877409 0.10183463 0.0761595 -0.07490034
0003b0 31 64 bd 3b 61 bc f5 3d e8 cf e7 bd 3d aa 09 bd
       0.005779766 0.11998821 -0.11318952 -0.033609618
0003c0 eb 19 51 bd 32 90 cf bd 42 56 28 3e 9d 13 3f bd
       -0.051050108 -0.10134925 0.16439155 -0.046649564
0003d0 03 56 2c be 14 7b e4 bd d8 64 17 3c bf c1 c0 bd
       -0.16829686 -0.11156288 0.009240352 -0.09411954
0003e0 e7 7e 8c 3d a2 fe 83 3d ea ab 15 be 62 b7 83 bd
       0.06860142 0.06445052 -0.14616361 -0.06431462
0003f0 0d 7d 46 bd ff a4 0e 3d ac cb 2d be db 2d f5 3c
       -0.0484591 0.03482532 -0.16972226 0.029929092

encoder.conv1.bias f4 [64]
000000 be c5 bb bd d3 97 23 be 15 38 25 3e f1 1c dc 3d
       -0.09168576 -0.15975885 0.16134675 0.10747708
000010 ae 20 c0 bd 8e 15 15 be c3 f7 1d be 9c a3 5b 3e
       -0.09381233 -0.14559004 -0.15426545 0.21449131
000020 0b 86 dc bc b8 f3 cb bd 34 90 b9 bd 4b d6 00 be
       -0.026919385 -0.09958595 -0.09060708 -0.12581746
000030 e7 f7 02 3e 36 39 87 bc 02 36 9e 3d 20 91 d2 bd
       0.1278988 -0.016506772 0.07725145 -0.10281587
000040 aa b3 51 3d d0 5c 42 be f2 50 f8 bd 82 e0 b3 bd
       0.05119673 -0.18980718 -0.12124814 -0.08783056
000050 a9 43 0d be 75 cd 30 3e 41 e6 79 3c 20 04 98 bc
       -0.13795342 0.17265876 0.015252651 -0.018556654
000060 a6 49 81 bd 22 a7 0f 3e 35 59 40 3d 2b bd 89 ba
       -0.063128754 0.140286 0.046960074 -0.0010508647
000070 62 e7 ac 3d 26 ae 0a be b3 70 e1 3d 3e 21 3e 3e
       0.0844257 -0.13542995 0.11007824 0.18567368
000080 79 60 cd bd 83 9c f0 3d 43 0d 53 3e 61 ed fd bd
       -0.10028166 0.11748602 0.20610528 -0.12398792
000090 02 5d 44 3c 14 8d 7f bc ba 1d fc 3d 0a 78 28 be
       0.011985065 -0.0155976005 0.123103574 -0.16452041
0000a0 8d b6 d9 3d 68 23 e5 3d 40 07 75 bc 94 46 25 be
       0.10630522 0.11188394 -0.014955342 -0.16140205
0000b0 a4 63 ce 3d 1a 8c e4 bc 1a 3d 0e 3e 2d 9b 0d 3d
       0.10077599 -0.027898837 0.13890496 0.034571815
0000c0 5d e4 09 be ef 33 17 be 39 95 3c 3c 80 0e 21 bd
       -0.1346602 -0.14765905 0.011510187 -0.03932047
0000d0 41 9d 77 3d fe 9f 26 be b0 26 5e 3d e4 81 d2 3d
       0.060452703 -0.1627197 0.054236114 0.10278681
0000e0 7f 3d 69 3d a0 53 c4 bc 8e a6 71 bd c9 e2 a6 bb
       0.056943413 -0.023965657 -0.05899673 -0.005092953
0000f0 e0 8c a6 3d ae d1 14 be a8 c1 9e bc cd 28 4c bd
       0.081323385 -0.14533111 -0.019379452 -0.0498436

decoder.deconv1.weight f4 [64, 3, 3, 3]
000000 ae 37 dd bd a6 a5 58 3e f2 43 9b bc cb 6e 1b 3e
       -0.10801636 0.2115694 -0.018953297 0.15178983
000010 53 0a af 3d de 7e 04 3e 9d 52 8e 3d d5 f3 42 bd
       0.08546891 0.12939021 0.06949351 -0.047595818
000020 a6 ae 8a bd 8b d3 16 bd d2 86 f1 bd 66 e8 50 3e
       -0.06771593 -0.036822837 -0.11793293 0.20401153
000030 1e 9d a9 3d 9a bd 0d 3e 10 1e 8c bd 3f 9c d3 3d
       0.08281921 0.13841859 -0.068416715 0.10332536
000040 36 05 1e 3e 5b 5f 33 3d 22 d1 4c 3d 30 84 0e bd
       0.15431675 0.04379211 0.050004132 -0.034794033
000050 9e 84 d9 bd 87 7a 39 3e 96 1f b3 3d a9 83 bb 3d
       -0.10620998 0.18113147 0.08746259 0.091559716
000060 eb 11 65 bc b6 dd 50 3e 23 af 03 3c 29 5c f9 3c
       -0.013981323 0.20397076 0.008037361 0.030439453
000070 98 74 1b 3e 46 ba da bd 19 27 54 be a0 93 a8 3d
       0.15181196 -0.1068006 -0.2071804 0.08231282
000080 03 72 b4 3d ea 30 81 bd 11 b3 58 3d 07 10 92 bd
       0.088108085 -0.06308158 0.052905146 -0.07131963
000090 a9 7d cb 3c 3e b3 22 3e ed 85 b7 3c 1d bc 30 3e
       0.024840193 0.15888688 0.022402728 0.1725926
0000a0 5c 6b 1a 3e 89 ca 0c bc 2e 3c 06 3e e4 39 0a be
       0.15080017 -0.00859321 0.13108894 -0.13498646
0000b0 aa a3 49 be d2 68 35 bd 49 99 88 bd 7c 23 bd bd
       -0.19691339 -0.044289418 -0.06669862 -0.09235284
0000c0 ff bb 17 bd 1b 16 00 be d4 54 ef 3d ee 32 1a bd
       -0.03704452 -0.12508433 0.116861016 -0.037646227
0000d0 30 55 1b be 69 6f dc 3c d5 62 1a bd 84 52 dc bd
       -0.15169215 0.026908593 -0.03769191 -0.10757926
0000e0 52 71 fd 3d e5 cc 0d bd de a8 30 be b0 2f 15 3c
       0.1237513 -0.03461923 -0.17251918 0.009105608
0000f0 0b b6 39 3d df 25 74 3d 0d 78 27 3e 40 11 7b 3d
       0.045339625 0.05960643 0.1635439 0.061295748
000100 40 7a 96 3d b1 9a c1 3d 06 00 41 be 3d 93 01 be
       0.07347536 0.09453333 -0.18847665 -0.12653823
000110 0f 19 26 be c1 2d c6 bd 8d 22 25 be fd a9 b4 3d
       -0.16220497 -0.096766956 -0.16126461 0.08821485
000120 f5 f9 1c 3e 8c ea 98 3d 56 1e 1e 3e 33 33 8a 3c
       0.15329726 0.07466611 0.1544126 0.016870117
000130 28 d1 1d 3b 90 f1 05 bd 87 a2 2e be 58 52 4c be
       0.0024080966 -0.032701075 -0.17054187 -0.19953287
000140 42 94 b9 bd 31 f5 f5 3d a7 d5 cf bd 5c 82 31 be
       -0.09061481 0.12009657 -0.10148173 -0.17334884
000150 6c 69 08 bd 48 a2 24 be 56 f3 33 bd 47 f2 cc bd
       -0.033303663 -0.1607753 -0.043933235 -0.10007148
000160 06 9c 9f bd 9c 5e 47 be 71 c0 54 be 90 8e 33 bd
       -0.07793431 -0.19469684 -0.20776536 -0.04383713
000170 12 98 13 3e f7 d7 85 3d 40 3d d5 bc eb aa d2 bd
       0.14413479 0.06535333 -0.026030183 -0.10286506
000180 90 97 ee 3c e0 ff 97 3c 58 4a 47 3c 64 e4 2e 3d
       0.029125005 0.018554628 0.012163721 0.04269828
000190 60 19 3f be f1 f2 4a be 32 78 5a be db 14 98 3d
       -0.18662024 -0.19819237 -0.21334913 0.07425853
0001a0 77 c6 9c 3d e6 4b 8b 3d 8b 57 25 be 3f 56 16 be
       0.07655042 0.06801586 -0.16146676 -0.14681338
0001b0 a8 08 1f 3e 6d 0c ae 3d b5 c6 ce bc 17 34 30 be
       0.15530646 0.08498464 -0.025241235 -0.1720737
0001c0 ed be 84 3d 0d f3 94 bd 55 7c ee bc 21 70 b1 3d
       0.06481729 -0.07272921 -0.02911202 0.08663965
0001d0 14 76 16 be ec 95 85 bd cb db b2 3d 6a eb 45 bd
       -0.1469348 -0.06522736 0.087333284 -0.04832021
0001e0 6f 30 03 3e 3a 7b 98 3d 32 fd 34 3c 87 ba 28 be
       0.12811445 0.074453786 0.011046695 -0.16477405
0001f0 54 c9 ff 3d 44 82 22 3e 8f f2 bb bb 57 25 80 3c
       0.12489572 0.15870005 -0.0057357023 0.015642805
000200 46 fd f0 3c cb 23 2e 3e 4b df b7 bd cb 1e 18 be
       0.029417645 0.17005841 -0.08978137 -0.14855497
000210 ad 31 64 bb 6e 69 34 be c4 3f 98 bd 63 e3 80 3c
       -0.0034819648 -0.17618343 -0.07434037 0.015733426
000220 4b 31 31 bd b9 aa 0a be 05 54 d9 3d 1f 61 85 3d
       -0.0432599 -0.13541688 0.106117286 0.06512665
000230 32 54 14 bd a6 72 d4 bd 9c 67 58 be b1 aa fe bd
       -0.036213107 -0.1037343 -0.21133274 -0.124349006
000240 6d 93 1d 3e 81 f7 0a be 84 a1 d8 3c e5 fd 08 3e
       0.1538827 -0.13570978 0.026444204 0.13378103
000250 a6 40 58 3d ba d5 89 bd b9 b1 08 3e 77 ea 23 3e
       0.05279603 -0.06730218 0.13349046 0.1600741
000260 a5 14 08 3d 8e 67 05 3e 5c 55 bc bd 5b e1 14 3e
       0.033222813 0.13027784 -0.091959685 0.14539091
000270 24 2a d6 bd 95 a5 23 3e 53 e0 7a bc a0 62 1a 3e
       -0.104572564 0.15981133 -0.015312272 0.15076685
000280 10 6e 28 be dd f4 d4 3d 08 62 b6 3d d3 94 a7 3d
       -0.16448236 0.103982665 0.08905417 0.08182683
000290 1b 25 44 be b8 62 09 bd c6 cf 07 be 46 a1 0c bd
       -0.1915478 -0.03354141 -0.13262853 -0.03433349
0002a0 7f c4 28 3d d4 98 a8 3d 4b 3d 55 bc 2e e2 2f be
       0.04120302 0.08232275 -0.013015102 -0.17176124
0002b0 41 df 10 3e b7 62 30 be 62 f7 f7 3d 1b 25 8f 3d
       0.14147665 -0.17225157 0.121077314 0.06989499
0002c0 58 12 03 be c3 18 00 3e f4 80 22 be ed 37 36 3e
       -0.12799966 0.12509446 -0.15869504 0.17794771
0002d0 42 0d d5 bd dd 86 36 bd 9d d6 22 3e 9c c2 fc 3d
       -0.10402919 -0.04456221 0.15902181 0.12341806
0002e0 97 0c 68 bd e1 b9 81 bc 76 de 48 3e 45 34 f0 bd
       -0.05665263 -0.015835704 0.19616112 -0.117287196
0002f0 e5 16 97 3c 7b b7 a0 3c 68 be db bd 46 c9 01 be
       0.018443534 0.01961874 -0.107296765 -0.12674436
000300 fb 36 0e 3e 50 22 4b bd ae 15 2d 3e 55 ac a6 bc
       0.13888161 -0.04959327 0.16902801 -0.020345846
000310 a0 20 16 bd 49 c6 e7 bd 2c c2 f2 bc 50 88 d0 ba
       -0.036652207 -0.11317117 -0.029633604 -0.0015909765
000320 c0 3d 5b 3d 73 2c 50 be 44 b1 3e bc bc 30 d3 bd
       0.053525686 -0.20329456 -0.011638943 -0.1031203
000330 63 af 5b bd a1 d6 91 bd 55 ff 6e bd 9e 62 fe 3d
       -0.05363406 -0.07121015 -0.058348972 0.124211535
000340 cf fc cb bd dc 15 20 3d 96 a2 45 3b 6d 48 29 be
       -0.09960329 0.039083347 0.0030156723 -0.16531534
000350 9f c8 13 bd a1 45 a4 3d 11 42 de 3d 59 c9 1d be
       -0.03608 0.08021093 0.10852445 -0.1540884
000360 3a 00 0b 3e 10 09 3f be ae e4 e9 bd 8b cf 42 be
       0.13574305 -0.18655801 -0.1142057 -0.19024484
000370 26 eb 9a bd b6 7f 4f be 04 85 94 bd 51 f0 56 be
       -0.07564382 -0.20263562 -0.07251933 -0.20990111
000380 bc 50 5a bd dd e5 d1 bc 34 da 22 be 27 3a 34 be
       -0.05329965 -0.025622303 -0.1590355 -0.17600308
000390 2b 46 01 be ea d3 72 3d da c8 dc bc 3a 89 1b 3e
       -0.12624423 0.05928413 -0.026951242 0.15189067
0003a0 23 a4 fc 3d 4b 0a ff bd a7 68 82 bd b8 d2 22 3e
       0.12335994 -0.12453135 -0.06367617 0.15900695
0003b0 7f 24 51 bd 05 54 70 bd 63 ee 59 3d 0f 55 a1 bd
       -0.051060196 -0.058673877 0.05320586 -0.07877552
0003c0 63 db 1f be f2 46 4b be a3 11 a5 3d 8b 1b a5 bd
       -0.15611033 -0.19851282 0.080600046 -0.08061894
0003d0 57 22 9e 3c 41 5a 2a be ee f4 2a 3e 96 3f 5a 3d
       0.019303484 -0.16635992 0.16694996 0.053283297
0003e0 5e 7e 1f 3e b4 33 47 3d 9c d7 dd 3d 0d a2 30 3e
       0.15575549 0.048633292 0.1083214 0.17249317
0003f0 6f d2 1a 3e 5c ce d0 3d 65 f4 39 bd d8 73 49 be
       0.15119337 0.1019561 -0.04539909 -0.19673097

decoder.deconv1.bias f4 [3]
000000 1c 21 94 3d e3 3a 72 bc 8b 78 ef 3d
       0.072328776 -0.0147845475 0.116929136
