inpainting/models/model_epoch_3.pth (torch, 15939 bytes, 4 tensors)

encoder.conv1.weight f4 [64, 3, 3, 3]
000000 cf f2 26 bd 7d c7 45 3e 48 91 25 be dd 65 98 3d
       -0.040758904 0.1931438 -0.16168702 0.07441304
000010 6b c4 b7 3d 6a 45 2c bb a5 4f a1 3d 41 3c 0c bd
       0.08973011 -0.0026286491 0.07876519 -0.03423715
000020 6f dc ee 3d 62 b3 f3 bd b3 47 22 be 7b 36 6f 3d
       0.11663138 -0.11899449 -0.15847664 0.058401566
000030 3e b2 a5 3d d5 7d 03 bc bb e4 9b bd 50 c0 0b be
       0.080906376 -0.008025606 -0.07611986 -0.1364758
000040 41 d1 42 3e de 17 aa 3d f2 b0 75 ba d2 84 4d 3d
       0.19025137 0.083053336 -0.0009372375 0.050175495
000050 75 06 bd bd 74 ae 54 3d 2c b3 03 3e 04 3c 3a 3e
       -0.09229747 0.051924184 0.12861317 0.18186957
000060 d6 64 dc bb c8 dd 18 3d 85 cc ea bd 11 4b 9a 3d
       -0.006725888 0.037320882 -0.1146479 0.07533849
000070 e9 7c 35 bc ed 9f 85 bd f3 8b f0 bd 96 db 4a 3e
       -0.011077144 -0.06524644 -0.11745443 0.19810328
000080 3a 0e 05 3c 46 12 ed bc fe 79 b1 bc 1f 3c 10 be
       0.008121068 -0.028939378 -0.021664616 -0.14085434
000090 77 7d 4e bd db e8 c8 3d f8 1f 8c ba 22 4f 3f 3c
       -0.05041262 0.09810039 -0.001069068 0.011676582
0000a0 ec b6 2e 3e 54 81 9a 3d df 24 65 3d 09 16 00 be
       0.17061967 0.07544199 0.055943366 -0.12508406
0000b0 34 73 24 be 46 2e 34 be ba 1e f2 3d 0f 4e 81 bd
       -0.16059572 -0.17595777 0.11822267 -0.063137166
0000c0 58 2e 3f 3e 12 95 03 be c8 89 82 bc c2 50 36 be
       0.18670022 -0.12849835 -0.01593484 -0.17804244
0000d0 05 de b3 bd 21 84 ed bd ca 9a 2a 3e f3 7b 2a 3d
       -0.08782581 -0.11597467 0.1666061 0.041622113
0000e0 66 12 60 bc 62 44 a5 3d 42 9a cd 3c 1c 28 15 bd
       -0.0136762615 0.080696836 0.02509797 -0.036415204
0000f0 86 5e 41 3e c4 34 c7 bd 2b c9 01 be 8c 9b 9e 3d
       0.18883714 -0.09726861 -0.12674396 0.07744512
000100 e3 98 26 be 45 7c 5e 3c f3 ad b7 3d 42 58 dc 3d
       -0.16269259 0.013579433 0.08968725 0.10759021
000110 e8 a0 0c be 4c 9c f0 bb 0f 0c 18 bd 7a 89 c0 3d
       -0.13733256 -0.007342851 -0.037120875 0.094012216
000120 17 85 82 3d 91 97 17 be c2 0a ca bd 89 06 89 bd
       0.06373041 -0.14803912 -0.09865333 -0.066906996
000130 47 c5 6f bd e5 13 32 3d 97 37 76 bc 51 e9 cc bc
       -0.058537748 0.043476004 -0.015027902 -0.025013598
000140 82 48 c7 bd a9 e1 30 3d 83 c0 b6 bd a0 14 d5 bd
       -0.09730627 0.043183956 -0.089234374 -0.104043245
000150 c1 eb 21 3d cd e5 3e bc c1 5b 40 be 5a c8 30 be
       0.039531473 -0.011651468 -0.18785001 -0.17263928
000160 96 90 11 3e ff 5b c4 3d 10 9f 23 bc 99 04 01 be
       0.14215311 0.09587859 -0.009986654 -0.1259941
000170 ea 92 4d 3d 0a a0 24 be 4b 2a a4 bd 99 05 0b 3e
       0.050188936 -0.16076675 -0.08015879 0.13576354
000180 48 04 2d bd 35 a2 0f 3d 48 7b bd 3d 77 7e 27 be
       -0.04224041 0.035066802 0.0925203 -0.16356836
000190 4b 17 d3 3d ad be 96 ba 9f a9 15 be 70 d4 3b 3d
       0.10307177 -0.0011500918 -0.14615487 0.045856893
0001a0 db ed 88 bd 32 11 c0 3d 02 1f 8c bd 45 60 34 3e
       -0.06685992 0.0937828 -0.06841852 0.17614849
0001b0 29 9b 2a 3e d1 9d 6d 3d 78 25 6e 3d 24 45 88 bd
       0.16660751 0.058011834 0.0581412 -0.066538125
0001c0 a9 8c d2 bc 17 b8 ee bd 11 76 dd 3d ac 0a 3f bd
       -0.025701838 -0.11656206 0.10813535 -0.046641037
0001d0 1e 79 d6 bd ca 53 b7 bc 84 61 20 3e 9a eb 8a bc
       -0.1047232 -0.02237882 0.156622 -0.016958047
0001e0 78 b2 15 3d 59 14 e0 bc c6 bd 45 3d 28 e5 38 3e
       0.036547154 -0.027353453 0.048276685 0.18056166
0001f0 6e 3f 06 be a1 46 16 3d f8 84 dd 3d c6 9d 27 3e
       -0.13110134 0.03668845 0.108163774 0.1636878
000200 44 dd f9 3d 47 e8 19 bd 1b d3 0c be c6 0c 9d 3d
       0.12200406 -0.037575033 -0.13752405 0.07668452
000210 a3 59 73 3d d3 8b a1 bd e2 9e ef 3d b7 a9 23 3e
       0.059411656 -0.078879975 0.11700226 0.1598271
000220 1d 91 19 be 25 8c 12 3e 0f ab 9d bd 33 73 b0 3d
       -0.14996763 0.14311273 -0.076986425 0.086157225
000230 f2 a5 9a bd 7d 38 f1 bd ed 1e 08 be 49 84 61 3c
       -0.07551183 -0.117783524 -0.13293047 0.013764449
000240 10 65 3d 3e 25 d3 f4 bc cb 5a 56 bd 67 84 b3 bb
       0.18495584 -0.029885838 -0.05233268 -0.00547843
000250 84 b8 29 bd be 34 cf bd f4 09 23 bd 95 92 8a bd
       -0.041435733 -0.10117482 -0.039804414 -0.067662396
000260 01 c5 84 3d db fd 02 3e f5 e2 f7 3c 11 4e bb 3d
       0.06482888 0.1279215 0.030259589 0.09145749
000270 c2 6a 15 3e 20 d5 33 3e e4 d2 dd 3d 46 da 63 bc
       0.14591506 0.1756177 0.1083124 -0.013907021
000280 6b eb fb 3d 4b fd 7f 3d a8 36 89 bb 7a aa fd bd
       0.12300762 0.06249742 -0.0041874237 -0.123860314
000290 3b 3c 50 bd e7 3a 15 be b7 ec 1c 3e 7e 48 eb bd
       -0.05083869 -0.1457325 0.15324675 -0.11488436
0002a0 b7 ee 0e 3d 49 8c bc 3d 58 e6 1c 3b 9e 6e 0b 3e
       0.034895625 0.09206445 0.0023941007 0.13616416
0002b0 c0 ac ce 3d ce 4b 5f bd 9c 36 88 3d a7 d7 ab bc
       0.10091543 -0.054515652 0.06651041 -0.020976854
0002c0 3d c7 0e 3e 49 30 5b 3d 95 d9 1d 3e f5 29 00 be
       0.13943191 0.053512845 0.15415032 -0.12516005
0002d0 0e 04 0f bd f0 4f 66 38 1a 00 c6 3c e5 ab 34 3e
       -0.034915976 5.491072e-05 0.02416997 0.17643698
0002e0 bb e8 e8 3d 60 d2 36 be 92 fa ac bc 75 8e 3a 3e
       0.11372515 -0.17853689 -0.021115575 0.18218406
0002f0 42 50 f3 3d 09 ef f2 3d 86 d9 fe bd f4 4f ff 3d
       0.11880542 0.118619986 -0.12443833 0.12466422
000300 ac bd b4 3d 4a c3 ca 3d fb ed 19 3e e0 a8 4c be
       0.088252395 0.0990053 0.15032189 -0.19986296
000310 8c 41 cc 3d 9f db a9 bd 17 79 4d bd 00 c1 18 be
       0.099734396 -0.082938425 -0.05016431 -0.14917374
000320 2a 9e e0 bd bd a6 28 3e cd 21 33 3e 40 e4 1e be
       -0.109676674 0.16469856 0.17493363 -0.15516758
000330 67 e6 d3 3c de ce 0b be 7a 98 a0 bd b7 c0 be 3d
       0.0258667 -0.13653132 -0.078415826 0.09314101
000340 5d 55 3f be bc 61 d1 3d 1b 05 07 3e 5b b7 05 be
       -0.18684907 0.102237195 0.13185541 -0.13058226
000350 1b 68 ca bc 8a af e4 bb 20 01 23 3b ec ef 49 be
       -0.024707844 -0.0069789337 0.0024872497 -0.19720429
000360 1e d7 9e 3d bc 73 4f 3d fd b4 ce 3d 1a 56 21 be
       0.07755874 0.050647482 0.100931145 -0.15755501
000370 29 47 45 be 07 be 22 be 7f ba d8 bd af 1e 28 bd
       -0.19265427 -0.15892802 -0.10582446 -0.041044887
000380 26 1f 09 bc 52 0e 17 be c0 0e a1 3d 08 db 05 3e
       -0.008369243 -0.14751557 0.078641415 0.13071835
000390 47 41 43 be be 93 e4 bd 85 52 d5 bd 24 a2 17 3e
       -0.1906787 -0.11160992 -0.1041613 0.14807945
0003a0 fc 57 c6 3c 45 b5 e5 3d f1 c4 ad 3d 4b 77 87 bd
       0.024211876 0.11216215 0.08484829 -0.0661455
0003b0 9d 6d 6d 3c a2 f7 03 3e f5 72 d5 bd 4e 43 ca bc
       0.014491466 0.12887433 -0.10422317 -0.024690297
0003c0 10 a8 2c bd 80 28 bd bd 33 7f 31 3e f8 1c 63 bd
       -0.042152464 -0.092362404 0.17333679 -0.05544755
0003d0 e8 61 35 be 9a ad f6 bd 49 1b 15 3a 9a a2 d2 bd
       -0.1771313 -0.120448306 0.0005687965 -0.1028492
0003e0 7c e6 74 3d 63 b5 64 3d 53 93 1e be f5 b9 95 bd
       0.05979012 0.055837046 -0.15485887 -0.07310859
0003f0 fc 28 65 bd 3e 5c df 3c 2c a2 35 be 3c ab b9 3c
       -0.05594729 0.027265664 -0.17737645 0.022664659

encoder.conv1.bias f4 [64]
000000 63 20 b5 bd 87 5d 1f be 81 b8 23 3e 71 35 c1 3d
       -0.08844068 -0.15563022 0.15988351 0.09434021
000010 a9 57 d6 bd ea 8f 1a be 34 8b 2b be d3 2d 48 3e
       -0.104659386 -0.15093961 -0.1675232 0.1954873
000020 0d 3c 21 bd 2d 66 b8 bd 92 97 da bd 72 e5 eb bd
       -0.03936391 -0.090038635 -0.10673441 -0.115183726
000030 2d 4f ff 3d f0 0d fb bc 17 0e b0 3d 21 07 f6 bd
       0.124662735 -0.030646294 0.085964374 -0.120130785
000040 29 16 19 3d 2d 2c 3a be 47 c1 0a be d1 a4 a1 bd
       0.03737465 -0.18180914 -0.13550292 -0.07892764
000050 7d d2 08 be 8e f2 38 3e ba 3a 04 3b 98 a5 00 bc
       -0.13361545 0.18061277 0.0020176605 -0.007851981
000060 07 da 9e bd cb de 01 3e 8b f5 25 3d 9d f3 10 3c
       -0.07756429 0.12682645 0.04051737 0.008847144
000070 ab 11 92 3d ec 1c 18 be 99 24 c3 3d 31 b6 30 3e
       0.07132276 -0.14854783 0.09528465 0.17257
000080 98 0b d7 bd f1 75 ca 3d 78 1c 49 3e 2b 38 ec bd
       -0.10500258 0.09885777 0.19639766 -0.11534151
000090 98 de 97 3c c8 5d f5 bc b6 db da 3d 95 1d 25 be
       0.018538758 -0.029951945 0.10686438 -0.16124566
0000a0 46 bf b7 3d cc f9 d7 3d e2 45 03 bc 89 06 21 be
       0.089720294 0.10545692 -0.008012267 -0.15725149
0000b0 14 cf b4 3d 41 cd 37 bd f7 1a 1f 3e 67 bf e4 3c
       0.088285595 -0.04487348 0.1553763 0.027923299
0000c0 b0 77 17 be 58 10 2b be 1b 41 f7 3c 94 8a 61 bd
       -0.14791751 -0.16705453 0.030182412 -0.0550638
0000d0 8e 6a 90 3d 36 c6 21 be df 6a 22 3d 2e e2 ad 3d
       0.07051574 -0.15798268 0.0396527 0.08490406
0000e0 67 3e 2c 3d 6e 32 90 bc b7 5e 9b bd ec 6f 7a 3b
       0.0420517 -0.017602172 -0.07586425 0.0038213683
0000f0 11 d7 8a 3d ad 4a 1f be af 59 d1 bb a1 78 80 bd
       0.06779302 -0.1555583 -0.006388865 -0.06273008

decoder.deconv1.weight f4 [64, 3, 3, 3]
000000 b4 c7 f6 bd 9e d9 4b 3e 32 f1 f3 bc b2 4c 0c 3e
       -0.12049809 0.19907233 -0.029778097 0.13701132
000010 6c 52 90 3d 23 a5 eb 3d ec ea 5d 3d 91 8a 81 bd
       0.07046971 0.11506107 0.054179117 -0.063252576
000020 ad 17 aa bd 11 28 35 bd c6 09 01 be 7d a8 48 3e
       -0.08305297 -0.044227663 -0.12601385 0.19595523
000030 36 bf 97 3d 86 13 04 3e e6 81 9f bd 30 46 c2 3d
       0.074095175 0.12898073 -0.07788448 0.094860435
000040 97 8c 14 3e e3 fb 0c 3d 74 b4 36 3d 7a 84 25 bd
       0.14506756 0.034419905 0.044605687 -0.040409543
000050 1c f2 e2 bd b2 77 32 3e cd 5a a4 3d 5b 8d ae 3d
       -0.11081335 0.17428473 0.080251314 0.08523055
000060 ff 04 a9 bc c8 99 49 3e 8e bf de 3a b1 79 1b 3d
       -0.020632265 0.19687569 0.0016994344 0.03795785
000070 fb 19 23 3e ab 7c cb bd 79 87 4c be b6 b1 b7 3d
       0.1592788 -0.09935888 -0.19973554 0.089694425
000080 73 7d c3 3d 35 0c 64 bd d6 b3 76 3d b5 28 83 bd
       0.09545412 -0.055675704 0.0602301 -0.064042486
000090 23 50 01 3d 6b 83 29 3e 71 e9 ed 3c 42 8d 37 3e
       0.031570565 0.16554038 0.029041978 0.1792498
0000a0 53 27 21 3e ee 91 05 bb ae 1e 0d 3e be 6c 03 be
       0.15737657 -0.002038117 0.13781235 -0.1283445
0000b0 e4 dd 42 be d4 09 16 bd ec 2c 72 bd 22 b0 ad bd
       -0.19029957 -0.036630467 -0.059124872 -0.0848086
0000c0 88 d2 f1 bc 5d fb f0 bd 48 70 fe 3d 7a a5 f7 bc
       -0.029519334 -0.11766694 0.1242376 -0.030230273
0000d0 ad df 13 be 46 e3 0b 3d 0f 95 eb bc 9c e3 c9 bd
       -0.14440794 0.03415229 -0.0287576 -0.09857866
0000e0 77 dc 07 3e 81 50 d2 bc 8a 70 27 be 78 ae 93 3c
       0.13267694 -0.025673153 -0.16351524 0.01802753
0000f0 7f 68 5e 3d e7 86 8c 3d 7e 9a 30 3e 53 fc 8f 3d
       0.054298874 0.06861668 0.17246434 0.07030549
000100 0b fc a8 3d a2 f3 d3 3d e4 c7 37 be ae a4 f0 bd
       0.082511984 0.10349204 -0.17947346 -0.1175016
000110 55 e8 1c be 75 a9 b3 bd 71 d7 1b be db 1e c7 3d
       -0.15323003 -0.08772556 -0.15218903 0.09722682
000120 7c 0c 28 3e 96 21 af 3d e7 0f 29 3e 27 d5 e2 3c
       0.16411012 0.08551328 0.16509973 0.02768953
000130 0c fe 58 3c 45 89 b4 bc d9 92 23 be b8 41 41 be
       0.013244163 -0.022038111 -0.15973987 -0.18872726
000140 73 d1 a3 bd 16 aa 07 3e 2b 7d b6 bd bd ca 24 be
       -0.07998934 0.13248476 -0.08910593 -0.16092964
000150 60 bb aa bc 60 de 17 be 1a a0 00 bd 21 2b b3 bd
       -0.0208413 -0.14830923 -0.031402685 -0.087484606
000160 a9 c9 85 bd 02 61 3a be c0 06 48 be de 47 00 bd
       -0.06532604 -0.18201068 -0.19533825 -0.031318538
000170 23 8f 20 3e c1 de 9f 3d 70 8d 58 bc 65 20 b8 bd
       0.15679602 0.07806159 -0.013217315 -0.08990554
000180 e7 43 2c 3d f2 6d 01 3d e6 c3 cf 3c b6 87 64 3d
       0.042056944 0.031598993 0.025361966 0.055793487
000190 3f ba 31 be c3 8a 3d be 01 08 4d be 21 ec b2 3d
       -0.17356203 -0.18509965 -0.20022584 0.08736444
0001a0 02 be b7 3d 93 51 a6 3d 60 d4 17 be d4 bd 08 be
       0.08971788 0.08121028 -0.14827108 -0.13353664
0001b0 4c 0b 1a 3e 8c ef a4 3d 24 12 e0 bc 67 c6 34 be
       0.15043372 0.080535024 -0.0273524 -0.1765381
0001c0 17 2c 79 3d 70 ba 98 bd 7c 89 fb bc 61 d4 af 3d
       0.060833063 -0.07457435 -0.030705206 0.0858543
0001d0 8f b4 14 be 5d 91 93 bd cc 8f a4 3d 8d 1f 62 bd
       -0.14522003 -0.0720546 0.080352396 -0.05520587
0001e0 56 41 f9 3d 07 2a 8b 3d 2e 01 97 3b 24 b7 2e be
       0.12170665 0.067951255 0.004608295 -0.1706205
0001f0 d7 ca f3 3d 82 97 1c 3e 79 4c 4c bc ad da 11 3c
       0.11903923 0.1529217 -0.012469404 0.008902234
000200 51 04 bd 3c a6 c0 27 3e db 8a c4 bd 27 16 1e be
       0.023073347 0.16382083 -0.09596797 -0.15438138
000210 9f dd 10 bc 89 c7 39 be 2d 40 a2 bd 90 44 01 3d
       -0.008841901 -0.18142523 -0.07922397 0.031559527
000220 03 cc e0 bc d3 8d f4 bd 10 0f f9 3d 75 f8 a4 3d
       -0.02744103 -0.11941113 0.12161076 0.08055202
000230 ea d9 a8 bc 4d b5 b4 bd 37 a0 48 be d0 ed de bd
       -0.020611722 -0.08823643 -0.19592367 -0.10885203
000240 88 9e 1e 3e 6b 27 0a be 47 ec e1 3c fb c5 0b 3e
       0.15490162 -0.134916 0.027578486 0.13649742
000250 41 90 61 3d 33 90 84 bd 33 b6 0e 3e 2b 76 29 3e
       0.055069212 -0.06472816 0.13936691 0.16548984
000260 a2 64 1e 3d 5e 62 f5 3d fa b4 d1 bd b4 16 0b 3e
       0.03867019 0.11981653 -0.10239597 0.1358288
000270 59 e0 ea bd 6a 32 19 3e de ef c9 bc ea b0 11 3e
       -0.11468572 0.14960638 -0.02465051 0.14227644
000280 cc 4b 31 be 04 06 c5 3d 6a af bf 3d 87 db b3 3d
       -0.1731407 0.09620288 0.093596295 0.08782106
000290 47 53 3a be 44 e2 09 bd a2 ea 06 be 02 a3 f3 bc
       -0.1819583 -0.03366305 -0.13175443 -0.029740814
0002a0 e0 ab 1f 3d f5 22 a5 3d 87 7a 3a bc 14 a2 36 be
       0.038982272 0.08063308 -0.011381752 -0.17835265
0002b0 98 0f 0a 3e e3 eb 36 be 4b 8f e9 3d fa 7b 80 3d
       0.13482511 -0.17863421 0.11404284 0.06273647
0002c0 b6 1d 0a be 7b dd f1 3d 00 da 29 be 20 1e 2f 3e
       -0.13487896 0.11809822 -0.16587067 0.17101336
0002d0 c8 0a e4 bd 48 8e 53 bd 01 35 1c 3e 41 cf ec 3d
       -0.11134869 -0.05164936 0.15254594 0.11562968
0002e0 13 a2 83 bd f7 03 bb bc 2a d7 40 3e 85 05 00 be
       -0.064273976 -0.022829039 0.18832079 -0.12502106
0002f0 5c 2f 39 3c 0d ce 08 3d 63 d9 bf bd 20 1a e8 bd
       0.011302795 0.03339963 -0.09367635 -0.11333108
000300 e0 39 1c 3e 76 d5 13 bd 93 ad 3a 3e cd cb dd bb
       0.15256453 -0.036092244 0.18230276 -0.0067686797
000310 0a 91 be bc 05 d1 cc bd 17 fb 6f bc 79 7a 57 3c
       -0.02326252 -0.10000805 -0.014647267 0.013151758
000320 54 5e 8b 3d a1 fb 40 be 9c aa 40 3b 1e cf b5 bd
       0.06805101 -0.18845989 0.0029398566 -0.08877395
000330 21 69 1f bd 62 5e 68 bd 96 90 34 bd 6f 16 0f 3e
       -0.038918618 -0.056730635 -0.0440832 0.13973401
000340 a9 99 ac bd ae d2 5d 3d c5 90 96 3c 81 c3 19 be
       -0.08427746 0.054155998 0.018379578 -0.15015985
000350 4c 9c ad bc 57 51 c3 3d 14 e1 fc 3d fd bd 0e be
       -0.021192692 0.09536999 0.12347618 -0.13939662
000360 37 11 18 3e ec 04 32 be d2 db cf bd 51 d3 35 be
       0.14850317 -0.1738469 -0.10149349 -0.17756392
000370 c1 0e 81 bd 39 8e 42 be 10 31 75 bd 69 07 4a be
       -0.06301642 -0.18999566 -0.059861243 -0.19729389
000380 5e 93 26 bd 44 66 55 bc d6 f4 15 be 03 3f 27 be
       -0.040667884 -0.01302487 -0.14644179 -0.16332631
000390 d7 ac e8 bd 49 4a 93 3d b5 50 69 bc a4 8d 28 3e
       -0.113610916 0.07191903 -0.014240433 0.16460282
0003a0 c1 59 0b 3e e4 d0 e4 bd be 30 4e bd a9 68 30 3e
       0.13608457 -0.11172655 -0.050339453 0.17227425
0003b0 ac e6 1a bd 5c 6b 3a bd 9e c6 87 3d 64 8b 86 bd
       -0.037817642 -0.045512542 0.0662968 -0.065695554
0003c0 d7 80 12 be 0f ff 3d be c1 a3 bf 3d d2 41 91 bd
       -0.14306961 -0.18554328 0.093574055 -0.07092632
0003d0 e0 25 ed 3c 0c 8d 20 be 09 eb 34 3e 58 f8 80 3d
       0.028948724 -0.15678805 0.17667784 0.06297368
0003e0 e2 59 29 3e ca 3a 6f 3d 48 cf f1 3d f3 8f 3a 3e
       0.16538194 0.058405675 0.11807114 0.18218975
0003f0 73 fe 23 3e 46 1c e3 3d 87 94 15 bd c3 3f 40 be
       0.16015033 0.11089377 -0.0365186 -0.18774323

decoder.deconv1.bias f4 [3]
000000 6c 6d ad 3d 28 18 70 ba 14 37 06 3e
       0.08468136 -0.0009158873 0.13106948
