inpainting/models/model_epoch_7.pth (torch, 15939 bytes, 4 tensors)

encoder.conv1.weight f4 [64, 3, 3, 3]
000000 96 2b 09 bd 23 2f 4d 3e a1 26 1e be 7c b3 a6 3d
       -0.033488832 0.20037512 -0.15444423 0.08139703
000010 27 f1 c5 3d 96 7f 8c 3b c6 31 af 3d ad 9f e1 bc
       0.09665137 0.0042876704 0.085544154 -0.02754196
000020 e4 84 fc 3d 76 ee e5 bd 73 70 1b be 97 45 85 3d
       0.123300344 -0.112271234 -0.15179615 0.06507414
000030 77 f9 b2 3d f9 76 d2 ba dc cc 8e bd d5 4c 05 be
       0.08738988 -0.0016057185 -0.069726676 -0.1301759
000040 68 2f 49 3e 62 bc b6 3d b5 1f a0 3b 1a ec 64 3d
       0.1964699 0.0892265 0.0048865923 0.055889226
000050 ba 4d b1 bd e4 24 6b 3d 2a 2a 09 3e 0e b2 3f 3e
       -0.08657403 0.05740823 0.1339499 0.18720266
000060 96 f8 b8 ba fe f2 2d 3d 7f 50 e0 bd c7 85 a2 3d
       -0.001411217 0.042468064 -0.109528534 0.07935672
000070 04 76 e6 bb f0 bd 7a bd c2 73 e8 bd b4 ec 4e 3e
       -0.0070331115 -0.061216295 -0.11350204 0.20207483
000080 ac f0 45 3c e0 61 cd bc 21 b1 91 bc e9 43 0c be
       0.012081306 -0.025071084 -0.017784657 -0.1369778
000090 9e f9 3d bd 52 37 d1 3d e3 9d 42 3b ef 2c 80 3c
       -0.04638063 0.1021563 0.0029696159 0.015646426
0000a0 ae cb 32 3e ff a1 a2 3d ba 03 75 3d 74 38 f8 bd
       0.1746051 0.079410546 0.059818007 -0.121201426
0000b0 85 7b 20 be 54 1f 30 be 1a 47 fa 3d a7 64 72 bd
       -0.15672119 -0.1719945 0.12220593 -0.05917802
0000c0 5f 27 43 3e 05 33 ff bd f1 b3 45 bc 99 77 32 be
       0.19057988 -0.12460903 -0.012066827 -0.17428435
0000d0 1a 2b ac bd 41 d6 e5 bd 37 12 2d 3e 55 c9 34 3d
       -0.084066585 -0.11222506 0.1690148 0.044137318
0000e0 34 83 31 bc 2f e6 a8 3d 9a d9 dc 3c cb b3 0b bd
       -0.010834504 0.08247029 0.02695923 -0.03410701
0000f0 67 5a 43 3e 37 23 c3 bd 46 99 fe bd 2b e9 a1 3d
       0.19077455 -0.09528201 -0.12431578 0.079058014
000100 ea ca 24 be 59 24 81 3c 7c cb b8 3d 52 c2 dd 3d
       -0.1609303 0.015764402 0.090231866 0.10828079
000110 79 45 0b be 45 f9 dc bb e2 31 15 bd ff 52 c3 3d
       -0.1360072 -0.0067435824 -0.036424525 0.095373146
000120 b0 cf 85 3d 84 b9 15 be 38 4c c5 bd 03 88 89 bd
       0.06533754 -0.1462155 -0.09633678 -0.06715395
000130 18 b7 6f bd 59 ae 35 3d ce c9 81 bc 95 23 d2 bc
       -0.05852422 0.044355724 -0.015843298 -0.025651732
000140 58 81 c6 bd 17 79 0d 3d 77 7e c8 bd ab d0 e6 bd
       -0.09692639 0.03453931 -0.09789746 -0.11270269
000150 34 27 fd 3c 1b 4f a6 bc 09 37 49 be 46 98 39 be
       0.030902483 -0.020301392 -0.196499 -0.18124494
000160 2d bb 08 3e 8b b1 b2 3d 52 c4 93 bc 2b 49 09 be
       0.13352652 0.0872527 -0.018037949 -0.13406818
000170 be 8a 2c 3d 70 d8 2c be b0 a8 b4 bd f7 c7 02 3e
       0.042124502 -0.1687944 -0.08821237 0.12771593
000180 b7 b8 4d bd a8 a3 dd 3c 55 15 ad 3d 8d fa 2e be
       -0.050224986 0.027055576 0.084513344 -0.17087765
000190 6b 06 c4 3d a9 02 0b bc 92 1c 1d be 81 d4 1d 3d
       0.09571537 -0.008484521 -0.1534293 0.038532738
0001a0 27 e4 97 bd a6 64 b1 3d e2 e4 9a bd 24 01 2d 3e
       -0.074165635 0.08661775 -0.07563187 0.16894966
0001b0 cf 3d 2e 3e a4 f9 76 3d 08 ff 6f 3d eb 34 86 bd
       0.17015766 0.06029667 0.058592826 -0.06553062
0001c0 7a ce d4 bc 70 88 f2 bd 07 3d db 3d e0 ca 47 bd
       -0.025977362 -0.1184243 0.107049994 -0.04877746
0001d0 6a 35 dd bd 08 1e 96 bc 6f 5a 23 3e 6a f8 80 bc
       -0.108012035 -0.018324867 0.15952466 -0.015743453
0001e0 54 5e 1d 3d e2 b3 da bc fc 0b 42 3d 55 c2 38 3e
       0.038420036 -0.026697103 0.04737471 0.18042882
0001f0 19 74 07 be 69 9d 0c 3d f1 28 de 3d ca 1c 26 3e
       -0.13227881 0.034329806 0.10847653 0.1622192
000200 f0 39 f3 3d 61 e2 22 bd a9 bd 10 be d7 7e 92 3d
       0.11876285 -0.039766673 -0.1413485 0.07153099
000210 b6 fa 62 3d 03 44 ac bd 65 0d e3 3d c0 87 28 3e
       0.055414878 -0.0841141 0.11086539 0.16458035
000220 97 4d 15 be 14 31 16 3e e9 98 93 bd 84 5d b9 3d
       -0.1458038 0.1466716 -0.072069 0.0905104
000230 10 0d 93 bd 63 27 e7 bd 9a a9 03 be 80 84 8f 3c
       -0.07180226 -0.11286809 -0.12857667 0.017519236
000240 28 31 44 3e 66 d5 c0 bc ba 94 3d bd bc 09 aa 3a
       0.19159377 -0.023539256 -0.046284415 0.0012972872
000250 96 12 0f bd fa 88 c2 bd 72 25 07 bd 40 4e 7a bd
       -0.034929834 -0.094987825 -0.032994695 -0.06110978
000260 58 99 91 3d 11 23 0a 3e 1f c2 17 3d 21 da c8 3d
       0.07109326 0.1348994 0.037050363 0.0980723
000270 d7 a6 1c 3e a4 e3 3a 3e e4 8e eb 3d 41 5d df bb
       0.1529802 0.182509 0.115018636 -0.0068165367
000280 5c 0a 05 3e f9 d1 8d 3d e7 a4 42 bc 37 16 07 be
       0.12992233 0.06924815 -0.011880136 -0.13192068
000290 ef 93 72 bd cf 53 1c be 5b 29 15 3e e4 c3 fb bd
       -0.05922311 -0.15266345 0.14566557 -0.122932225
0002a0 db f3 ed 3c 33 87 ae 3d d3 48 a7 bb 66 68 05 3e
       0.029046943 0.08521881 -0.005105117 0.13028106
0002b0 11 14 c1 3d 03 06 7d bd 94 c4 7f 3d c5 ee d8 bc
       0.094276555 -0.06177331 0.06244333 -0.026481042
0002c0 64 1f 08 3e f2 db 54 3d e0 02 1a 3e 0c 84 05 be
       0.13293225 0.05196757 0.15040159 -0.13038653
0002d0 e2 6b 0f bd d3 d6 13 bb fc f1 a4 3c 22 1f 3a 3e
       -0.035014994 -0.0022558465 0.020134918 0.18175939
0002e0 b9 9c ec 3d 06 47 38 be 7b 62 47 bc eb f0 40 3e
       0.1155333 -0.17995843 -0.012169476 0.18841903
0002f0 ab 43 f8 3d 8f e5 dc 3d 0f 72 0a be 05 58 e9 3d
       0.12122282 0.10785972 -0.13520072 0.113937415
000300 ed bf 9e 3d d6 c2 b4 3d fd f5 0e 3e 0d 9e 57 be
       0.07751451 0.088262245 0.13961025 -0.21056385
000310 07 54 b6 3d 82 b9 bf bd 71 01 74 bd 61 7c 22 be
       0.08902746 -0.09361555 -0.059571687 -0.1586776
000320 11 15 f4 bd a2 02 1f 3e 48 62 29 3e 73 a6 28 be
       -0.119180806 0.15528348 0.16541398 -0.16469745
000330 82 36 87 3c 41 81 15 be 54 07 b4 bd be 74 af 3d
       0.016505484 -0.14600088 -0.0879046 0.08567189
000340 fd 7b 47 be 55 ac c0 3d fa 48 fe 3d ff 1c 0e be
       -0.19480892 0.0940787 0.12416263 -0.13878249
000350 e3 a7 07 bd 11 ad 6f bc c5 12 ba bb 54 8b 52 be
       -0.033119094 -0.014628665 -0.005678507 -0.20560962
000360 0f 59 8d 3d 88 65 2c 3d e0 2e bd 3d d5 1a 2a be
       0.06901752 0.042089015 0.09237456 -0.16611798
000370 a1 11 4e be 79 88 2b be 5c 45 ea bd a6 4f 4b bd
       -0.20123912 -0.16751279 -0.114390105 -0.049636506
000380 5d f7 8a bc 28 40 1f be 96 9e 90 3d 91 48 fb 3d
       -0.016963655 -0.15551817 0.07061498 0.122697
000390 93 7d 4b be 3a 1c f5 bd 4b d9 e5 bd fc 64 0f 3e
       -0.19872122 -0.119682744 -0.11223086 0.14003366
0003a0 b6 23 84 3c d3 27 d5 3d 58 2e 9f 3d 74 28 96 bd
       0.01613031 0.104079865 0.07772511 -0.073319346
0003b0 f0 38 f0 3b b4 1e f9 3d 6a 61 e4 bd 82 ed 02 bd
       0.007331006 0.12164059 -0.11151393 -0.031964786
0003c0 6d 54 4a bd a6 1e cc bd ea 07 2a 3e cf da 45 bd
       -0.04939692 -0.09966783 0.16604581 -0.048304375
0003d0 47 09 2e be 1e ea e7 bd 30 67 fa 3b 91 0f c4 bd
       -0.16995727 -0.11323951 0.0076416954 -0.095732816
0003e0 cf 21 89 3d 43 c5 80 3d 23 4f 17 be db 10 87 bd
       0.066959016 0.06287625 -0.14776282 -0.06595012
0003f0 12 61 4b bd c6 b1 09 3d 41 10 2f be cd 2a ec 3c
       -0.04965312 0.033616804 -0.17096044 0.028829003

encoder.conv1.bias f4 [64]
000000 6f b0 b3 bd 12 2d 23 be 6a 40 22 3e 6e eb d4 3d
       -0.087738864 -0.15935162 0.15844885 0.10396467
000010 d0 14 c5 bd fa 8e 14 be 03 3e 21 be 40 2a 55 3e
       -0.0962311 -0.14507666 -0.15746312 0.20816898
000020 11 95 f6 bc 8a 09 c8 bd 77 81 c3 bd e7 7d fc bd
       -0.030100377 -0.097674444 -0.09546178 -0.123287015
000030 93 06 00 3e 4c b6 a6 bc f0 68 a2 3d c3 71 dd bd
       0.12502508 -0.020350598 0.079301715 -0.10812714
000040 5c b3 41 3d a6 ee 40 be 19 24 00 be ad 42 b0 bd
       0.04729019 -0.18841037 -0.1251377 -0.086064674
000050 c0 77 0c be cb 05 32 3e e6 a4 3f 3c 3f 2f 53 bc
       -0.13717556 0.17385022 0.01169703 -0.012889682
000060 02 67 89 bd b1 e9 0b 3e 4b 1e 2f 3d e6 73 a0 3a
       -0.067091 0.13663365 0.0427535 0.0012241572
000070 5b de a5 3d 8e 1c 0e be 44 6d d5 3d 01 89 3a 3e
       0.080990516 -0.1387808 0.104212314 0.18216325
000080 73 8e d3 bd c4 52 e4 3d 1c e0 50 3e 6c 2c fa bd
       -0.103299044 0.11148599 0.20397991 -0.12215504
000090 73 76 53 3c 94 f8 ae bc 07 f1 f1 3d d6 e7 27 be
       0.012906658 -0.021358766 0.118135504 -0.16397032
0000a0 61 57 cf 3d 39 65 e4 3d fb 69 66 bc 20 f9 20 be
       0.10124088 0.11152119 -0.014063354 -0.15720034
0000b0 26 c7 c7 3d 08 6c 07 bd 3c 65 13 3e d7 1a fb 3c
       0.097547814 -0.03306201 0.14394087 0.030652447
0000c0 cd 67 0d be b8 e3 1d be 60 4c 92 3c 43 f1 35 bd
       -0.13809128 -0.15418899 0.017858684 -0.04441954
0000d0 43 02 88 3d 2f 34 26 be ca fd 4c 3d 40 7b c6 3d
       0.066410564 -0.16230844 0.05004672 0.09691477
0000e0 0f 20 58 3d e1 3a b2 bc 32 fc 82 bd 51 a3 67 bb
       0.05276495 -0.021756591 -0.06395759 -0.0035345147
0000f0 1f ee 9e 3d 28 01 18 be 52 85 7f bc 37 d8 5a bd
       0.07760262 -0.14844191 -0.015595751 -0.053428855

decoder.deconv1.weight f4 [64, 3, 3, 3]
000000 7d bf e3 bd de 5f 55 3e 94 e7 ae bc e9 f0 16 3e
       -0.11120508 0.20837352 -0.02135066 0.14740337
000010 68 d6 a5 3d 12 38 00 3e 40 bb 84 3d 2e d3 56 bd
       0.08097535 0.12521389 0.064810276 -0.05244749
000020 a3 54 94 bd 79 5c 16 bd cc 0a f2 bd 59 a8 50 3e
       -0.07242706 -0.036709283 -0.118184656 0.2037672
000030 07 5c a8 3d 60 b4 0c 3e 4c 3d 8e bd 43 a6 d2 3d
       0.08220678 0.13740683 -0.06945285 0.10285618
000040 4c 17 1d 3e 88 54 2f 3d 09 0e 4f 3d 32 ad 0c bd
       0.15340918 0.042805225 0.050550494 -0.03434486
000050 b0 99 d7 bd c7 4b 39 3e a6 64 b2 3d a2 b3 bb 3d
       -0.105273604 0.18095313 0.087106034 0.091651216
000060 cc 16 66 bc 63 94 50 3e 9f 64 05 3c b7 63 02 3d
       -0.014043521 0.20369105 0.008141666 0.031833377
000070 b8 dd 1c 3e 88 eb d7 bd fd c0 52 be ae 55 ab 3d
       0.15318954 -0.10542971 -0.20581432 0.083659515
000080 1e 2f b7 3d 71 da 7c bd b5 20 5e 3d aa 5f 8f bd
       0.08944534 -0.06173176 0.05423041 -0.07000668
000090 e7 d4 d5 3c df f7 23 3e 50 a4 c1 3c e6 fe 31 3e
       0.026102496 0.16012524 0.02363792 0.17382392
0000a0 c3 a7 1b 3e 2d 37 f2 bb 70 83 07 3e 0b f9 08 be
       0.15200715 -0.0073918314 0.13233733 -0.13376252
0000b0 c4 64 48 be 75 2d 2f bd 9b 8b 85 bd 48 1c ba bd
       -0.19569689 -0.04276796 -0.06520768 -0.090874255
0000c0 ac b6 11 bd 61 3d fd bd 56 3b f2 3d 16 59 14 bd
       -0.0355746 -0.12365223 0.11827724 -0.03621777
0000d0 99 ea 19 be f8 a5 e7 3c 66 4c 12 bd 57 3f d8 bd
       -0.15030898 0.028277382 -0.03571739 -0.10558956
0000e0 ec b8 00 3e e3 b1 05 bd 17 9f 2e be d3 2a 35 3c
       0.12570542 -0.03264035 -0.17052875 0.011057573
0000f0 ab d4 41 3d 69 4e 7c 3d 74 77 29 3e a9 24 82 3d
       0.047321957 0.061598215 0.16549474 0.063546486
000100 d4 10 9b 3d 65 1e c6 3d 58 b4 3e be 3f 93 fe bd
       0.07571569 0.09673766 -0.18623483 -0.12430429
000110 53 d7 23 be 02 90 c1 bd 61 d5 22 be 47 34 b9 3d
       -0.16000108 -0.094512954 -0.1590171 0.09043174
000120 d8 f8 1f 3e 92 e7 9e 3d 44 09 21 3e 9b 2d a2 3c
       0.1562227 0.07759012 0.15726191 0.019797137
000130 09 89 ae 3b e4 a2 f4 bc 60 a5 2b be c4 58 49 be
       0.0053263945 -0.029862829 -0.16762304 -0.19662768
000140 1c cc b3 bd 03 25 fc 3d 65 a8 c9 bd 8e 65 2e be
       -0.08779165 0.12311747 -0.09846572 -0.17030928
000150 72 d0 f7 bc 6a 81 21 be 6f 4d 27 bd 6f 92 c6 bd
       -0.030250762 -0.15772024 -0.04084533 -0.09695899
000160 a6 36 99 bd cf 21 44 be 83 79 51 be c7 46 26 bd
       -0.074811265 -0.19153522 -0.2045651 -0.040594842
000170 dc fc 16 3e 57 a5 8c 3d 07 a4 b9 bc 79 9e cb bd
       0.14744896 0.068674736 -0.022661222 -0.09942336
000180 e2 51 05 3d 3a 79 b4 3c 50 bf 80 3c d0 bd 3c 3d
       0.032548793 0.022030462 0.015716225 0.046079457
000190 12 aa 3b be 02 81 47 be a2 01 57 be 1d f8 9e 3d
       -0.18326595 -0.19482806 -0.20996717 0.077621676
0001a0 25 b5 a3 3d df 44 92 3d e3 dd 21 be a1 d4 12 be
       0.07993535 0.07142042 -0.158073 -0.14338924
0001b0 de 73 1e 3e db 2e ad 3d b9 5a cb bc c1 b0 30 be
       0.15473887 0.084562026 -0.024823533 -0.17254926
0001c0 15 17 84 3d cb 1c 94 bd 58 71 ea bc 22 f5 b2 3d
       0.06449715 -0.07232054 -0.0286185 0.087381616
0001d0 70 f1 14 be 82 1c 87 bd e4 2c b1 3d a9 22 49 bd
       -0.14545226 -0.06597234 0.0865114 -0.04910532
0001e0 14 a0 02 3e a9 3f 97 3d 8d 78 2b 3c 4a 08 29 be
       0.12756377 0.07385189 0.010465753 -0.16507068
0001f0 b8 26 ff 3d 18 38 22 3e 0e 33 de bb 77 1d 6f 3c
       0.12458557 0.1584171 -0.0067809885 0.014594427
000200 70 d1 e9 3c a9 4e 2d 3e 32 7e b9 bd bb c6 18 be
       0.02854225 0.16924538 -0.09057273 -0.1491956
000210 4c fd 7f bb b5 cb 34 be 56 b9 98 bd 18 db a7 3c
       -0.0039060889 -0.17655833 -0.07457225 0.020490214
000220 5b ba 1d bd bb bf 05 be 0b b5 e2 3d 5f ae 8e 3d
       -0.0385078 -0.1306142 0.110696875 0.069668524
000230 27 87 01 bd ad 23 cb bd 83 cd 53 be 5f 70 f5 bd
       -0.031623032 -0.09918914 -0.20683865 -0.11984324
000240 9c 36 21 3e 34 6d 07 be c6 db f5 3c de 43 0d 3e
       0.15743488 -0.13225251 0.030012023 0.1379542
000250 a9 af 68 3d 19 74 81 bd 00 ec 0d 3e d8 02 29 3e
       0.056808148 -0.06320972 0.13859558 0.16504991
000260 17 6c 1c 3d 80 ff 02 3e 1e 1f c1 bd 7d e8 12 3e
       0.03818902 0.12792778 -0.09429763 0.143465
000270 cd 98 da bd 16 62 21 3e 87 3d 8c bc bb fe 18 3e
       -0.10673676 0.15760073 -0.017119182 0.14940922
000280 4e e7 29 be 00 d0 d2 3d ff a5 bc 3d 1a a1 ae 3d
       -0.16592142 0.10293579 0.09211349 0.085268214
000290 64 ca 3f be 06 37 03 bd a7 eb 05 be ec 6a 00 bd
       -0.1872955 -0.032034896 -0.13078175 -0.03135197
0002a0 8b 6e 2b 3d 3e 53 aa 3d 1c e4 34 bc ae 96 30 be
       0.04185347 0.083166584 -0.011040714 -0.1724498
0002b0 3e 22 10 3e 9f 01 31 be 79 24 f6 3d c9 31 8d 3d
       0.14075562 -0.17285775 0.12018675 0.068942614
0002c0 8f ec 03 be 87 68 fe 3d b7 7c 23 be d2 56 35 3e
       -0.12883209 0.12422281 -0.15965544 0.177089
0002d0 18 ed d7 bd 9f dd 3b bd ad c3 21 3e 2b 77 f9 3d
       -0.10543269 -0.04586565 0.157973 0.121809326
0002e0 bc 55 6e bd 06 1b 8c bc da 33 47 3e a3 70 f3 bd
       -0.05818723 -0.01710273 0.19453374 -0.11886718
0002f0 ea 35 8c 3c 18 59 be 3c 9e 7d d4 bd 8c 80 fc bd
       0.017115552 0.023235843 -0.10375522 -0.12329206
000300 e0 de 11 3e 87 dc 3c bd 9e 8d 30 3e 11 c6 89 bc
       0.14245176 -0.04610875 0.17241523 -0.016818078
000310 12 0a 08 bd fc ed e0 bd 15 ee cf bc 1f 07 27 3b
       -0.03321273 -0.10982892 -0.025382081 0.0025486422
000320 03 d6 6b 3d 62 e5 4b be b7 56 f8 bb 71 11 cb bd
       0.057577144 -0.19911721 -0.0075786966 -0.09915436
000330 9a c0 4a bd 8d 97 89 bd bc db 5e bd 6e bd 03 3e
       -0.049500085 -0.06718359 -0.054408774 0.1286523
000340 54 15 c3 bd c6 67 31 3d 97 ca f1 3b 92 ea 24 be
       -0.095255524 0.043311857 0.007378887 -0.16105106
000350 83 d5 02 bd 80 03 ad 3d d0 cb e6 3d 9c a4 19 be
       -0.031941902 0.08447933 0.11269343 -0.150042
000360 c7 33 0e 3e 8a db 3b be 83 87 e3 bd f1 a5 3f be
       0.13886939 -0.18345466 -0.11109831 -0.18715645
000370 5d a5 94 bd 31 5a 4c be 4d 36 8e bd 6f cf 53 be
       -0.07258103 -0.1995628 -0.06943951 -0.20684598
000380 ba bc 4d bd 68 8e b7 bc e1 8f 1f be ab e3 30 be
       -0.05022881 -0.022406772 -0.15582229 -0.17274348
000390 8b ee fb bd 23 07 80 3d b9 fc c1 bc 0b e3 1e 3e
       -0.12301358 0.06251361 -0.023680078 0.15516298
0003a0 e1 ac 01 3e 24 3e f8 bd 11 c5 76 bd 8d 4a 26 3e
       0.12663604 -0.121212274 -0.06024653 0.16239376
0003b0 79 58 43 bd 39 a3 62 bd 19 72 67 3d 24 99 9a bd
       -0.047691796 -0.055331443 0.056505296 -0.075487405
0003c0 6e 7f 1c be 5e f6 47 be 8c b0 ab 3d 1b ca a0 bd
       -0.15282986 -0.19527575 0.08383283 -0.078510486
0003d0 92 3e af 3c 0a 3e 28 be da 22 2d 3e 45 e7 62 3d
       0.02139214 -0.16429916 0.16907826 0.055396337
0003e0 fe a1 21 3e b2 02 50 3d 64 3a e2 3d 46 ce 32 3e
       0.15784451 0.05078382 0.110462934 0.174615
0003f0 b0 e2 1c 3e f4 e9 d4 3d 7c d3 31 bd 45 60 47 be
       0.1532085 0.103961855 -0.043414578 -0.19470318

decoder.deconv1.bias f4 [3]
000000 68 a6 9a 3d 2b 28 2e bc 3c db f7 3d
       0.07551271 -0.010629694 0.121023625
