inpainting/models/model_epoch_2.pth (torch, 15939 bytes, 4 tensors)

encoder.conv1.weight f4 [64, 3, 3, 3]
000000 0d 19 32 bd 8c fe 42 3e ba 5a 28 be 98 dc 92 3d
       -0.04348092 0.19042414 -0.1644086 0.07170981
000010 11 3d b2 3d f1 a0 ae bb ed cc 9b 3d a9 3c 17 bd
       0.08703054 -0.0053292443 0.07607446 -0.036923084
000020 76 5c e9 3d a8 3d f9 bd 1e 0c 25 be 87 24 64 3d
       0.11394589 -0.12169963 -0.16117904 0.055698898
000030 09 30 a0 3d ac 7f 2f bc 9e 64 a1 bd 83 7e 0e be
       0.07821662 -0.010711592 -0.07880519 -0.13915448
000040 4c 14 40 3e ea 9e a4 3d 6b b0 6a bb 93 b8 42 3d
       0.18757743 0.08038123 -0.003581072 0.047539305
000050 79 6d c2 bd 64 f3 49 3d f6 06 01 3e 78 8f 37 3e
       -0.094935365 0.04930438 0.12600312 0.17925823
000060 44 e6 18 bc 18 3c 0e 3d 76 1d f0 bd a1 c8 95 3d
       -0.009332243 0.03472528 -0.11724369 0.073136576
000070 6d be 59 bc e1 29 8a bd 0d 0b f5 bd 5b 99 48 3e
       -0.01329003 -0.06746269 -0.119649984 0.1958975
000080 4f b6 c1 3b 2b fd fe bc e4 77 c3 bc fa 7c 12 be
       0.0059116255 -0.03112658 -0.02386088 -0.14305487
000090 be 7b 57 bd bd 62 c4 3d 75 28 57 bb a3 68 1b 3c
       -0.052608244 0.09589145 -0.003283051 0.009485397
0000a0 4b 75 2c 3e 80 fb 95 3d 5a 35 5c 3d ce 54 02 be
       0.16841619 0.073233604 0.053761818 -0.12727663
0000b0 68 b3 26 be 2a 6c 36 be 1d 9a ed 3d c9 d5 85 bd
       -0.16279376 -0.17814699 0.116016604 -0.06534917
0000c0 1b f2 3c 3e 4e d5 05 be e2 97 94 bc 85 89 38 be
       0.18451731 -0.1306965 -0.01813883 -0.1802121
0000d0 bd 56 b8 bd 45 00 f2 bd 97 48 28 3e a1 11 21 3d
       -0.09000919 -0.11816458 0.16433941 0.039323453
0000e0 44 37 83 bc 88 b8 a0 3d a5 22 bb 3c 7d 9d 1e bd
       -0.016017564 0.078476965 0.022843668 -0.03872441
0000f0 d1 10 3f 3e db df cb bd 32 2c 04 be 96 44 9a 3d
       0.18658759 -0.099548064 -0.12907484 0.07532613
000100 f7 d1 28 be 85 da 39 3c 43 8a b3 3d 50 14 d8 3d
       -0.16486345 0.011343603 0.08766606 0.10550749
000110 e1 da 0e be 54 e7 19 bc 0e ad 20 bd 8f 09 bc 3d
       -0.13950683 -0.009393532 -0.039227538 0.09181511
000120 bf b4 7c 3d 1c c4 19 be 18 94 ce bd b4 c1 8c bd
       0.06169581 -0.15016216 -0.100868404 -0.068728834
000130 09 ba 77 bd 59 81 29 3d 30 90 89 bc a4 5a dc bc
       -0.06048015 0.04138312 -0.016792387 -0.02689869
000140 32 80 cb bd 85 84 3c 3d ce ed b0 bd 64 41 cf bd
       -0.09936561 0.046024818 -0.08639108 -0.10119894
000150 48 8f 2d 3d 97 4d 10 bc 04 72 3d be a0 df 2d be
       0.04237297 -0.008807561 -0.18500525 -0.16979837
000160 da 79 14 3e cd 2e ca 3d 56 24 eb bb c7 45 fc bd
       0.14499608 0.09872208 -0.0071759624 -0.123179965
000170 93 1b 59 3d 09 bf 21 be 85 66 9e bd e0 e7 0d 3e
       0.053004812 -0.1579553 -0.07734398 0.13857985
000180 77 81 21 bd 1a 28 1b 3d c6 3e c3 3d 80 a6 24 be
       -0.039430108 0.03788004 0.095334575 -0.1607914
000190 8b ca d8 3d 7a 46 d6 3a 81 d1 12 be 44 3b 47 3d
       0.10585507 0.0016347908 -0.14337732 0.048640504
0001a0 d6 39 83 bd ae be c5 3d b1 6e 86 bd 96 38 37 3e
       -0.06407516 0.0965551 -0.065640815 0.1789268
0001b0 ae 57 2b 3e b9 9b 71 3d df 66 73 3d b9 c6 85 bd
       0.16732666 0.0589864 0.059424277 -0.06532044
0001c0 0f ca c6 bc 30 4e eb bd e2 b4 e0 3d bf e1 37 bd
       -0.02426627 -0.114895225 0.10972001 -0.044893023
0001d0 fa 92 d2 bd a7 fc b3 bc a9 0f 21 3e 74 ea 82 bc
       -0.1028194 -0.02197106 0.1572863 -0.015980937
0001e0 ae 54 19 3d de e3 d6 bc 1e 60 4b 3d 33 35 3a 3e
       0.037434272 -0.026231702 0.04965221 0.18184356
0001f0 a0 be 04 be 7d 06 1d 3d 0c 0d df 3d c9 bb 28 3e
       -0.12963343 0.038336266 0.1089116 0.16477884
000200 9f c8 fc 3d 56 ab 14 bd 9b 37 0b be 6e c1 a0 3d
       0.12342953 -0.03629621 -0.1359543 0.07849394
000210 82 2d 7a 3d 83 b2 9d bd 76 ca f3 3d c8 ee 20 3e
       0.061078556 -0.07700064 0.11903851 0.15716088
000220 6f 46 1c be 2e dd 0f 3e 40 1f a3 bd 85 0a ab 3d
       -0.15261243 0.14049217 -0.07964945 0.08351616
000230 01 01 a0 bd 60 a7 f6 bd 65 d0 0a be 69 d5 36 3c
       -0.078126915 -0.12043643 -0.13556059 0.011159279
000240 4f 9b 3a 3e d6 84 05 bd a1 69 61 bd be 59 06 bc
       0.18223308 -0.032597385 -0.055032376 -0.008200107
000250 3b d2 34 bd e7 ba d4 bd d5 29 2e bd 52 1c 90 bd
       -0.044145804 -0.10387211 -0.042520363 -0.07036652
000260 45 83 7e 3d 24 35 00 3e c1 b8 e1 3c 8c c9 b5 3d
       0.062136907 0.12520272 0.027553918 0.08876333
000270 ce a2 12 3e cf 10 31 3e d2 50 d8 3d 2f 1d 88 bc
       0.14319918 0.17291568 0.1056229 -0.016615478
000280 f4 66 f6 3d 0c 01 75 3d 3c d8 d4 ba 27 56 f8 bd
       0.120313555 0.05981545 -0.0016238759 -0.12125807
000290 b0 6d 45 bd 37 b1 12 be 36 87 1f 3e 7e f7 e5 bd
       -0.04820031 -0.14325415 0.15578923 -0.11228846
0002a0 dc 9f 18 3d 6f 98 c1 3d ea ad a1 3b 19 e3 0d 3e
       0.03726183 0.094529025 0.0049340622 0.13856162
0002b0 ec bc d3 3d 7b e9 54 bd 84 c0 8c 3d 82 8f 98 bc
       0.10338768 -0.051980477 0.06872657 -0.018623117
0002c0 dd 4a 11 3e f5 2a 63 3d f8 14 20 3e 55 8b fb bd
       0.14188714 0.05546089 0.15632999 -0.12282435
0002d0 25 e4 07 bd e7 ae 09 3b 95 80 d8 3c 95 50 35 3e
       -0.03317656 0.002100879 0.0264285 0.17706521
0002e0 38 db eb 3d 44 d3 34 be b2 6e b4 bc 96 e5 3a 3e
       0.11516422 -0.17658716 -0.02202544 0.18251643
0002f0 36 18 f6 3d 8e 26 f9 3d ca a2 f8 bd 7d c2 02 3e
       0.120163366 0.12165557 -0.121404245 0.12769504
000300 76 f3 ba 3d 3c f8 d0 3d 9d 07 1d 3e e5 8e 49 be
       0.09128468 0.10203597 0.15334935 -0.19683416
000310 bc 74 d2 3d 36 aa a3 bd 0c 3c 41 bd c6 b1 15 be
       0.102761716 -0.079914495 -0.047176406 -0.14618596
000320 91 81 da bd d1 b4 2b 3e de 2f 36 3e 07 d7 1b be
       -0.10669244 0.16768195 0.17791697 -0.15218745
000330 a1 4a ec 3c 3c c2 08 be cc 80 9a bd a8 cb c4 3d
       0.02884418 -0.13355345 -0.07544097 0.09609157
000340 fa 4d 3c be 33 70 d7 3d fc 09 0a 3e 76 b0 02 be
       -0.1838912 0.10519447 0.13480371 -0.12762627
000350 05 31 b2 bc 53 4d 84 bb f3 27 b2 3b 91 ea 46 be
       -0.02175189 -0.004037538 0.005436891 -0.19425417
000360 84 a7 a4 3d 6a 17 5b 3d 4d 87 d4 3d 63 6d 1e be
       0.080397636 0.053489126 0.10377369 -0.15471415
000370 b5 5d 42 be 5c d4 1f be db e8 d2 bd 87 78 1c bd
       -0.18981059 -0.15608352 -0.1029832 -0.03820088
000380 a5 06 b5 bb 86 2c 14 be 66 d4 a6 3d 4c be 08 3e
       -0.0055244737 -0.1447011 0.081459805 0.13353842
000390 ac 5e 40 be 70 cc de bd 69 8a cf bd f7 84 1a 3e
       -0.18786114 -0.10878837 -0.101338215 0.15089785
0003a0 c3 76 dd 3c af 7d eb 3d df 77 b3 3d bf c0 81 bd
       0.027034169 0.114985816 0.08763098 -0.063355915
0003b0 e8 93 8d 3c d7 d2 06 3e 05 b9 cf bd 98 59 b3 bc
       0.017282441 0.13166367 -0.101427115 -0.021893308
0003c0 c3 3a 21 bd 75 6e b7 bd 60 5c 34 3e e2 7e 6e bd
       -0.03936268 -0.08956615 0.17613363 -0.058226474
0003d0 60 3b 38 be 27 62 fc bd e6 aa 10 bb 77 54 d8 bd
       -0.179914 -0.123234086 -0.002207452 -0.105629854
0003e0 c9 7e 69 3d bd 57 59 3d fe 6b 21 be 6f 6d 9b bd
       0.057005677 0.05306219 -0.15763852 -0.07589232
0003f0 aa 67 70 bd bb d1 c8 3c f7 74 38 be 35 39 a3 3c
       -0.05869261 0.02451407 -0.18013369 0.01992474

encoder.conv1.bias f4 [64]
000000 80 11 ba bd e6 20 1d be 0b 3a 26 3e 4a 43 bb 3d
       -0.09085369 -0.15344581 0.16233079 0.09143694
000010 9a 84 da bd 40 5d 1d be 88 cd 2d be 03 2a 45 3e
       -0.10669823 -0.15367603 -0.16972935 0.19254307
000020 26 0a 2d bd 11 a9 b2 bd 35 7f e0 bd ca 49 e6 bd
       -0.042246006 -0.08723653 -0.10961763 -0.11244543
000030 0c dd 01 3e 94 a8 09 bd d5 cd b4 3d c3 c5 fb bd
       0.12681979 -0.033608034 0.08828322 -0.122935794
000040 e1 67 0d 3d d0 83 37 be ff d4 0d be d4 1e 9c bd
       0.034522895 -0.17921376 -0.13850783 -0.076230675
000050 6d 02 07 be 80 90 3b 3e da 4b 66 ba 15 66 19 bc
       -0.13184519 0.18316841 -0.00087851065 -0.009362717
000060 d3 fa a4 bd 1c c0 fd 3d 18 c7 2e 3d a1 b5 3d 3c
       -0.080556534 0.123901576 0.04267034 0.011578948
000070 96 11 8c 3d 4b 25 1b be 06 2d c4 3d 05 be 2d 3e
       0.06839292 -0.15150945 0.095789 0.16967018
000080 89 96 d3 bd 85 2a c4 3d 1c 54 46 3e f1 dc e6 bd
       -0.10331447 0.095784225 0.19368023 -0.1127261
000090 96 0e ac 3c 81 9b f5 bc fe b4 d4 3d ee a5 23 be
       0.021003049 -0.029981377 0.10386084 -0.15981266
0000a0 38 87 b1 3d dd 9a d2 3d 57 77 b5 bb 15 61 23 be
       0.08668369 0.10283444 -0.005537908 -0.15955003
0000b0 85 e5 ae 3d 8a 24 44 bd 41 28 22 3e cb 12 f0 3c
       0.08539871 -0.04788641 0.15835668 0.029305836
0000c0 0a 7f 1a be 22 15 2e be 19 b4 07 3d eb f6 69 bd
       -0.15087524 -0.17000249 0.03313074 -0.057120245
0000d0 8d 71 8b 3d 32 76 1f be 80 9f 16 3d 09 f2 a8 3d
       0.068087675 -0.15572432 0.036773205 0.082492895
0000e0 b6 db 1f 3d 3f a6 84 bc 8a 86 a1 bd 9f ad d7 3b
       0.039027892 -0.016192554 -0.078869894 0.0065819765
0000f0 cc e0 84 3d fc be 1f be b3 22 7a bb 2a f7 85 bd
       0.06488189 -0.15600199 -0.0038167655 -0.065412834

decoder.deconv1.weight f4 [64, 3, 3, 3]
000000 5a a6 fc bd f0 e8 48 3e bf 86 05 bd 5b 4d 09 3e
       -0.123364165 0.19620109 -0.032599207 0.13408415
000010 21 4e 8a 3d 16 a9 e5 3d a0 e2 51 3d 4a 94 87 bd
       0.06753183 0.11213891 0.051241517 -0.06620081
000020 a4 1c b0 bd ea 4f 41 bd b7 15 04 be 1d 9c 45 3e
       -0.08599213 -0.047195353 -0.12898909 0.19297834
000030 6c a9 91 3d bb 06 01 3e 74 9c a5 bd c4 33 bc 3d
       0.07112393 0.12600224 -0.08086482 0.09189561
000040 b0 81 11 3e b5 ce 00 3d b3 72 2b 3d 08 cf 30 bd
       0.14209628 0.03144713 0.041857433 -0.04316619
000050 cf 89 e8 bd be a0 2f 3e 90 a7 9e 3d 11 e5 a8 3d
       -0.1135441 0.17151162 0.07746804 0.08246816
000060 19 b6 bf bc e5 c0 46 3e 20 24 8b ba 8c ff 25 3d
       -0.02340226 0.19409521 -0.0010615624 0.04052691
000070 8f ba 25 3e 4d 3d c6 bd 18 e6 49 be 35 f2 bc 3d
       0.16184448 -0.09679661 -0.1971668 0.09225885
000080 8b bb c8 3d 40 84 59 bd db 9a 80 3d 3a d6 7b bd
       0.09801396 -0.05310464 0.06279536 -0.0614836
000090 3b cc 0a 3d 3b e0 2b 3e c7 64 00 3d 54 ec 39 3e
       0.033886176 0.16784756 0.03134611 0.18156558
0000a0 14 84 23 3e 98 0e 8b 39 36 81 0f 3e 8a 0c 01 be
       0.15968353 0.0002652302 0.14014134 -0.1260244
0000b0 fc 7e 40 be d1 16 0c bd 46 40 68 bd e2 ba a8 bd
       -0.1879844 -0.034201447 -0.05670192 -0.0823877
0000c0 32 fb dd bc e9 09 ec bd 02 b0 01 3e 30 dd e3 bc
       -0.027097318 -0.11525328 0.12664798 -0.027815431
0000d0 85 69 11 be b5 b7 15 3d d8 f2 d5 bc 2c 77 c4 bd
       -0.14200409 0.03655215 -0.026116773 -0.09593043
0000e0 c5 92 0a 3e 6e aa bc bc ef b9 24 be 19 63 a9 3c
       0.1353255 -0.023030486 -0.16086553 0.020677136
0000f0 f2 3d 69 3d e3 f4 91 3d 3e 51 33 3e e4 fe 94 3d
       0.05694384 0.071267866 0.1751146 0.07275179
000100 e4 02 ae 3d 71 f9 d8 3d 87 45 35 be 5f 9b eb bd
       0.08496645 0.10594452 -0.17702304 -0.11504244
000110 e8 63 1a be 65 a2 ae bd c8 51 19 be 8f 29 cc 3d
       -0.15077174 -0.08527068 -0.14972603 0.09968864
000120 bf b3 2a 3e c9 73 b4 3d d8 b7 2b 3e b9 10 f8 3c
       0.1667013 0.08811147 0.1676935 0.030281411
000130 56 c6 81 3c 44 4d 9f bc db eb 20 be 9b 99 3e be
       0.015841644 -0.019446023 -0.15714972 -0.18613283
000140 83 84 9e bd fd ac 0a 3e c4 77 b0 bd f7 c7 21 be
       -0.07740118 0.13542552 -0.086165935 -0.15798937
000150 ce 9e 92 bc e4 da 14 be 7a 22 e9 bc 70 22 ad bd
       -0.01789799 -0.14536625 -0.028458823 -0.08453834
000160 d2 81 7f bd 43 5c 37 be 0f 20 45 be 11 51 e9 bc
       -0.062379666 -0.17906289 -0.1925051 -0.028481038
000170 53 78 23 3e 00 b3 a5 3d c7 d6 29 bc cb 46 b2 bd
       0.15963869 0.08090782 -0.010366148 -0.08704909
000180 bb f4 37 3d 26 24 0d 3d ae 3b e7 3c 5e 61 70 3d
       0.044911128 0.034458302 0.0282267 0.058686607
000190 9a c3 2e be 82 93 3a be c3 10 4a be af db b8 3d
       -0.17066804 -0.18220332 -0.19732957 0.09026276
0001a0 6b af bd 3d 9a 42 ac 3d 11 db 14 be 5e c3 05 be
       0.09261974 0.08411141 -0.14536692 -0.13062808
0001b0 74 99 17 3e c4 14 a0 3d 37 90 f2 bc 89 32 37 be
       0.14804631 0.07816461 -0.029609783 -0.17890371
0001c0 14 91 6f 3d 3d 4c 9d bd bd cf 06 bd 02 65 ab 3d
       0.058487967 -0.07680557 -0.03291296 0.08368875
0001d0 f0 ba 16 be 66 de 98 bd 8e 3f 9f 3d 84 bf 6c bd
       -0.14719748 -0.07464294 0.07775794 -0.05779983
0001e0 46 fb f3 3d c7 e1 85 3d 94 01 05 3b 60 55 31 be
       0.11913161 0.06537204 0.002029513 -0.17317724
0001f0 84 8d ee 3d 3e f9 19 3e 91 fd 72 bc de 5a d6 3b
       0.11648086 0.15036485 -0.014830963 0.006541594
000200 fe df a9 3c fe 5a 25 3e e3 53 c9 bd 15 74 20 be
       0.02073669 0.16147992 -0.09830453 -0.15669282
000210 42 77 36 bc ee 1e 3c be 29 e0 a6 bd 7f 07 0d 3d
       -0.011136832 -0.18371174 -0.08148224 0.034430977
000220 55 43 c9 bc 74 9f ee bd 9a e5 fe 3d ef d0 aa 3d
       -0.02456824 -0.11651507 0.12446137 0.08340632
000230 3d 3f 91 bc 8f d8 ae bd c2 b0 45 be 0c 03 d9 bd
       -0.01773035 -0.08537399 -0.19305709 -0.10596284
000240 5b e8 1b 3e 1f e3 0c be a6 21 cc 3c 4d 18 09 3e
       0.15225355 -0.13758515 0.024918389 0.13388176
000250 14 c0 56 3d 3c f1 89 bd 82 2f 0c 3e 80 e6 26 3e
       0.052429274 -0.06735465 0.13689998 0.16298866
000260 1a 3e 14 3d 4b e9 ef 3d 0f 2d d7 bd 18 67 08 3e
       0.036192037 0.11714419 -0.10506641 0.13320577
000270 9c 54 f0 bd c1 78 16 3e 61 4e df bc fe 06 0f 3e
       -0.11734888 0.14694501 -0.027259054 0.13967511
000280 6d f5 33 be a7 d4 bf 3d 31 ae bb 3d b8 27 b0 3d
       -0.17574091 0.09366732 0.09164084 0.08601326
000290 df 98 3b be dd 28 13 bd f9 2d 09 be 0d be 01 bd
       -0.18320034 -0.035927642 -0.13396443 -0.031675387
0002a0 ad 03 16 3d 41 5c a0 3d a1 9c 5d bc 77 42 39 be
       0.0366246 0.07830096 -0.013526113 -0.1809176
0002b0 22 6e 07 3e 88 8b 39 be 0c 47 e4 3d c9 61 76 3d
       0.13225606 -0.18119633 0.111463636 0.06015185
0002c0 73 c1 0c be 66 95 ec 3d b2 7f 2c be 07 7a 2c 3e
       -0.1374567 0.11551933 -0.16845587 0.16843425
0002d0 da de e8 bd 6c 28 5d bd c7 d8 19 3e 09 ed e7 3d
       -0.113706306 -0.053993627 0.150241 0.11324508
0002e0 1c 7f 88 bd bc 27 ce bc 8a 64 3e 3e 22 76 02 be
       -0.06664869 -0.025165431 0.1859304 -0.12740377
0002f0 6c c1 12 3c 87 22 15 3d d6 b0 b9 bd 49 f4 e1 bd
       0.008957248 0.03640988 -0.09066932 -0.11032922
000300 9b 4e 1f 3e 59 86 07 bd d8 bf 3d 3e fc a3 76 bb
       0.1555733 -0.03308711 0.18530214 -0.0037634363
000310 6f fa a5 bc 75 ae c6 bd f1 d9 3e bc 66 3a 84 3c
       -0.020261018 -0.09701244 -0.011648641 0.016141128
000320 25 78 91 3d 8a ea 3d be ea 27 c2 3b a9 b7 af bd
       0.07102994 -0.18546501 0.0059251683 -0.08579952
000330 92 2c 13 bd 40 2b 5c bd f5 67 28 bd 28 30 12 3e
       -0.035931177 -0.053752184 -0.041114766 0.14276183
000340 7c 69 a6 bd 39 2b 6a 3d 4f 57 af 3c 79 ac 16 be
       -0.08125588 0.057170127 0.021403937 -0.1471423
000350 1e f5 94 bc 1c 7f c9 3d 9c 85 01 3e 07 ab 0b be
       -0.018183287 0.09838697 0.12648624 -0.1363946
000360 a7 19 1b 3e c1 fc 2e be 92 cb c9 bd 47 cb 32 be
       0.15146504 -0.17088605 -0.09853281 -0.17460357
000370 96 fe 75 bd 86 86 3f be 9e 11 69 bd de ff 46 be
       -0.060057245 -0.1870366 -0.056901567 -0.19433543
000380 33 75 1a bd 48 b9 26 bc c5 09 13 be 36 53 24 be
       -0.037709426 -0.01017601 -0.14359196 -0.16047367
000390 e0 d5 e2 bd cd 21 99 3d e7 89 3a bc a9 79 2b 3e
       -0.1107595 0.0747715 -0.011385418 0.16745628
0003a0 0e 46 0e 3e 03 f7 de bd 57 3e 42 bd 4a 65 33 3e
       0.13893911 -0.108869575 -0.047422733 0.17519107
0003b0 0a f3 0e bd c3 7f 2e bd 74 bc 8d 3d aa 94 80 bd
       -0.03489975 -0.04260231 0.0692071 -0.062783554
0003c0 2a 87 0f be 58 05 3b be 63 98 c5 3d 0d ac 8b bd
       -0.14016405 -0.18263757 0.09648206 -0.068199255
0003d0 8f bc 01 3d a1 c3 1d be 7a b5 37 3e 4f 8c 86 3d
       0.031673964 -0.15406658 0.17940322 0.065697305
0003e0 f5 22 2c 3e 2c 63 7a 3d d7 62 f7 3d 00 59 3d 3e
       0.1681021 0.061129734 0.12079399 0.18490982
0003f0 c1 91 26 3e e6 41 e8 3d f4 4d 0b bd 9b ac 3d be
       0.16266538 0.11340694 -0.03400989 -0.18522875

decoder.deconv1.bias f4 [3]
000000 56 4e b3 3d fa e7 f1 3a 68 26 09 3e
       0.08755176 0.0018455975 0.13393557
