inpainting/models/model_epoch_4.pth (torch, 15939 bytes, 4 tensors)

encoder.conv1.weight f4 [64, 3, 3, 3]
00000000: 91ec 1cbd e547 483e 7310 23be 7455 9d3d
00000010: 5cb0 bc3d 68d7 6cb9 dc30 a63d bc83 02bd
00000020: f9b6 f33d 0cc5 eebd dbd1 1fbe a30c 793d
00000030: b390 aa3d 1f51 b9bb d50b 97bd 6e57 09be
00000040: ae37 453e aae1 ae3d 83fe b33a aaed 563d
00000050: 6151 b8bd 06f6 5d3d 8100 063e 4d89 3c3e
00000060: 4cfc 92bb 09f6 213d fa41 e6bd 4c94 9d3d
00000070: 8703 1bbc 1b50 82bd bb48 edbd da7f 4c3e
00000080: 2a5a 1f3c b123 e0bc 7379 a4bc 3a9b 0ebe
00000090: 96f0 47bd c835 cc3d d6b4 0e3a 9a5b 593c
000000a0: 8e5a 303e 99c9 9d3d 2d97 6b3d 02ee fcbd
000000b0: 49d3 22be ae8d 32be 7167 f53d e108 7cbd
000000c0: 9bcb 403e 9af4 01be 5c03 6bbc fab8 34be
000000d0: 00a9 b0bd 0a4d eabd c60d 2c3e fc80 303d
000000e0: c89f 46bc 3ce8 a73d e2a1 d83c 5e30 0fbd
000000f0: 15b8 423e d567 c4bd 5d46 00be d3eb a03d
00000100: 845a 25be 875b 743c 7f82 b93d e55f de3d
00000110: 8c6f 0bbe 9a4b d3bb 0d05 14bd 76eb c23d
00000120: 0e9b 843d 5f69 16be 065b c7bd 3ed4 87bd
00000130: 0daa 6cbd 0041 363d 9e51 6fbc c916 c8bc
00000140: dd72 c5bd 9928 263d 1a1f bcbd 9e73 dabd
00000150: a233 173d 36d8 69bc 2f0b 43be bf75 33be
00000160: 1ae2 0e3e 91fe be3d 1406 4dbc 659c 03be
00000170: b732 433d 1036 27be 4a59 a9bd bf6d 083e
00000180: 8957 37bd 1349 053d 114e b83d 7dfd 29be
00000190: fd13 ce3d eed1 6bbb 0a28 18be e7cf 313d
000001a0: 8ff0 8dbd 251b bb3d 531a 91bd 63e2 313e
000001b0: e6d0 2a3e 3322 6d3d a6ed 6b3d 5a31 89bd
000001c0: 8dad d8bc e9ef f0bd 7084 db3d 8fde 43bd
000001d0: fc5b d9bd 2ff8 b2bc 299e 203e 2652 8cbc
000001e0: cd78 153d 5dfc e2bc acdb 423d 8b51 383e
000001f0: fc13 07be c0e8 113d 5c89 dd3d 2d30 273e
00000200: d31c f83d 4ca2 1cbd 25e7 0dbe ad3a 9a3d
00000210: ef93 6e3d fe86 a4bd 9932 ec3d 2af1 253e
00000220: e45a 17be 50af 143e 8a17 99bd ace5 b43d
00000230: 845b 96bd 67a9 ecbd dfe7 05be 0de5 813c
00000240: eee3 3f3e db1a e1bc 7aa0 4cbd 26c4 46bb
00000250: 97d1 1fbd 1a53 cabd b407 19bd 7f9f 85bd
00000260: e7a7 893d 9584 053e 12f4 053d 3d43 c03d
00000270: 64f2 173e f256 363e 00ca e23d 5b70 3bbc
00000280: 8476 003e f4f4 843d dae8 d2bb 7636 01be
00000290: a006 5abd 885e 17be 77a7 1a3e 2c06 f0bd
000002a0: f347 073d c451 b83d f017 4839 5d79 093e
000002b0: 8174 ca3d 623a 68bd 1407 853d f2da babc
000002c0: c2b3 0c3e 0fee 563d fd53 1c3e 59fd 01be
000002d0: 656d 12bd bcf5 a6ba a639 b83c 4853 353e
000002e0: c821 e83d 7cff 37be cd13 9dbc d485 3b3e
000002f0: 50d7 f23d 59e0 ec3d 6773 02be ba46 f93d
00000300: 12b2 ae3d 2eb9 c43d dfea 163e c2ac 4fbe
00000310: 2c3b c63d 1fde afbd 5df3 58bd d3a0 1bbe
00000320: 825a e6bd 6cc9 253e 2643 303e 84c1 21be
00000330: 8114 bd3c a4aa 0ebe ce4d a6bd 9856 b93d
00000340: 7c13 42be 3de2 cb3d 524d 043e 9378 08be
00000350: f982 e0bc 0099 1dbc 202b 48b9 f8b0 4cbe
00000360: 0e82 993d 64c5 443d 4e5d c93d 7701 24be
00000370: b7f3 47be e86a 25be a211 debd 32d2 32bd
00000380: bcf3 33bc 14a3 19be 3fe2 9b3d 6244 033e
00000390: 94d7 45be b6c3 e9bd 6b83 dabd 770b 153e
000003a0: d793 b13c 1b83 e03d 39cf a83d a972 8cbd
000003b0: 3f8d 453c d178 013e 8176 dabd 9653 debc
000003c0: c4a5 36bd 7e2d c2bd 67fc 2e3e d13a 59bd
000003d0: 6be7 32be 21b5 f1bd cecf 423b 8ab1 cdbd
000003e0: efd1 7e3d bf88 6e3d b61b 1cbe 73c5 90bd
000003f0: 55d3 5bbd 9822 f23c 1d46 33be a630 cc3c
-0.038311545 0.19558676 -0.15924244 0.076823145 0.092133254 -0.00022586959 0.08114788 -0.031863913
0.11900134 -0.116586775 -0.15607397 0.060803067 0.083283804 -0.0056554223 -0.07375304 -0.13412258
0.19259521 0.08539136 0.0013732467 0.052472748 -0.08999897 0.054189704 0.1308613 0.18411751
-0.0044856425 0.039541278 -0.11243053 0.07694301 -0.00946129 -0.06362935 -0.11586138 0.19970647
0.009726087 -0.027360769 -0.020077443 -0.13926402 -0.048813425 0.099711955 0.0005443817 0.013266468
0.17222044 0.07704467 0.05751722 -0.12350084 -0.15900911 -0.17436859 0.119826205 -0.061531905
0.1882767 -0.12690964 -0.014344063 -0.17648688 -0.08625984 -0.11440475 0.16802129 0.04309176
-0.012123056 0.08198592 0.02644438 -0.034958236 0.19015534 -0.09590117 -0.12526841 0.0785748
-0.1614781 0.0149144 0.09058093 0.10858134 -0.1361677 -0.0064482214 -0.03613763 0.09517567
0.06474887 -0.14688633 -0.09734158 -0.06632279 -0.05777936 0.044495583 -0.014606861 -0.024424927
-0.09641049 0.04056606 -0.0918562 -0.106665835 0.036914475 -0.01427274 -0.19047235 -0.17525385
0.13953438 0.093258984 -0.012513656 -0.12852629 0.047655787 -0.16329217 -0.08268984 0.13323115
-0.044761214 0.032540392 0.08999265 -0.16600604 0.10062406 -0.0035983282 -0.14859024 0.04341116
-0.069306485 0.09136037 -0.07085099 0.17371516 0.16681251 0.057893943 0.057599686 -0.06698866
-0.026449943 -0.11764509 0.1071862 -0.04781967 -0.10613248 -0.021846859 0.15685333 -0.017129015
0.036492158 -0.027708227 0.047572777 0.17999856 -0.13191217 0.03562236 0.10817215 0.16326971
0.12114873 -0.038240716 -0.13857706 0.07530723 0.05824655 -0.0803356 0.11533088 0.16205278
-0.14780766 0.14520001 -0.07475193 0.08832869 -0.07341674 -0.115557484 -0.13076733 0.01585629
0.18739292 -0.027478626 -0.04995773 -0.0030329316 -0.03901824 -0.098791316 -0.037360862 -0.06524562
0.06721478 0.13038857 0.032703467 0.09387825 0.14838558 0.17806605 0.11073685 -0.011440362
0.1254521 0.064920336 -0.0064364495 -0.12618431 -0.053228974 -0.14782155 0.15102945 -0.11719927
0.0330276 0.089999706 0.00019082404 0.13425203 0.098855026 -0.056696303 0.06495491 -0.02280948
0.13740447 0.052473124 0.15266414 -0.126943 -0.035748858 -0.001273803 0.022488426 0.1770755
0.11334568 -0.17968553 -0.01917448 0.1831277 0.11857474 0.115662284 -0.12739335 0.12171693
0.08530058 0.09605633 0.14738034 -0.20280746 0.09679255 -0.08587288 -0.052966464 -0.15198068
-0.11247732 0.16190118 0.17213115 -0.15796477 0.023081066 -0.13932282 -0.08120309 0.090497196
-0.18952745 0.09955261 0.1292012 -0.13327245 -0.027406203 -0.009618998 -0.00019089552 -0.19989383
0.07495509 0.04803981 0.098322496 -0.16016184 -0.19526564 -0.16154063 -0.10843207 -0.04365749
-0.010983404 -0.15003616 0.076115124 0.12819055 -0.19320518 -0.11414282 -0.10669597 0.14555155
0.02167694 0.109625064 0.082426496 -0.06857807 0.0120576015 0.12643744 -0.10667134 -0.027139466
-0.04459168 -0.09481333 0.17088471 -0.053034607 -0.17471091 -0.11802126 0.0029725912 -0.100436285
0.062211927 0.05823588 -0.15244946 -0.070689104 -0.05366834 0.029557511 -0.17507215 0.024925541

encoder.conv1.bias f4 [64]
00000000: 62a5 b1bd 4af7 20be 6604 223e fed3 c63d
00000010: 917d d1bd 4314 18be 49ca 28be 5c53 4b3e
00000020: 9d2f 16bd bf7c bdbd a99e d4bd 7bf6 f0bd
00000030: f506 fd3d 7166 e3bc 83eb ab3d ecde efbd
00000040: 6643 243d aa78 3cbe c6c8 07be 4275 a6bd
00000050: e125 0abe 4ea5 363e e4f4 9b3b 79d2 f8bb
00000060: f1e3 98bd 47b6 043e 346c 223d e267 d33b
00000070: 20bf 973d ea3a 15be 29bb c53d 7a83 333e
00000080: 624a d8bd 37e0 d03d b1ab 4b3e fcbd f0bd
00000090: 2a35 873c 9b27 eabc 4ffc e03d 9a27 26be
000000a0: aee9 bd3d 7ab2 dc3d d966 26bc 6e76 1fbe
000000b0: dd54 ba3d 8842 2bbd 1116 1c3e da8e e13c
000000c0: b393 14be 03ec 27be b6d4 de3c cf1d 57bd
000000d0: 3f73 923d 8d90 23be 6deb 2d3d 09ac b33d
000000e0: 2558 383d c643 99bc d90e 95bd c2a7 b43a
000000f0: 327d 903d 4dd3 1dbe 65bc 10bc 7477 76bd
-0.086741224 -0.15719333 0.1582199 0.09708403 -0.10229028 -0.14851479 -0.16483416 0.19856018
-0.0366665 -0.09252309 -0.103818245 -0.117657624 0.123548426 -0.027758809 0.0839453 -0.11712441
0.04010334 -0.18405405 -0.13260183 -0.08127834 -0.13491012 0.17836496 0.004759418 -0.0075934497
-0.074653514 0.12960158 0.03965397 0.006451593 0.07409501 -0.14573255 0.096548386 0.17530623
-0.105610624 0.101990156 0.19889714 -0.11754987 0.016504843 -0.028583338 0.10985624 -0.16226044
0.092730865 0.10776229 -0.010156357 -0.15572521 0.09098218 -0.041811496 0.15242793 0.027533937
-0.14509468 -0.16398625 0.027201038 -0.052518662 0.07150888 -0.1597311 0.042460848 0.087730475
0.045005936 -0.018709075 -0.072782226 0.0013782906 0.07055129 -0.15412636 -0.008833979 -0.060172513

decoder.deconv1.weight f4 [64, 3, 3, 3]
00000000: 2818 f1bd 1bb2 4e3e dbf3 ddbc 2242 0f3e
00000010: ce44 963d c586 f13d ded5 693d b516 77bd
00000020: ff20 a4bd bea2 29bd 9746 fcbd 118f 4b3e
00000030: 3e8f 9d3d b900 073e 5fa6 99bd 8d0e c83d
00000040: 6b76 173e 45a7 183d 7ffb 403d f130 1bbd
00000050: 20e4 ddbd 6f19 353e 4ba7 a93d 8ec4 b33d
00000060: 9e09 94bc a33e 4c3e 3921 8b3b 3fc9 123d
00000070: b2ef 203e b4ce cfbd d8b1 4ebe ae61 b33d
00000080: f130 bf3d 4eb3 6cbd 0419 6e3d 4f71 87bd
00000090: 172c f33c f997 273e ff94 de3c 19a0 353e
000000a0: 7c3d 1f3e 6bbe 7fbb 142e 0b3e fe59 05be
000000b0: a5c9 44be 996e 1ebd e886 7abd 65db b1bd
000000c0: e83e 01bd 0b1f f5bd 2a4f fa3d 8b1a 04bd
000000d0: 21ed 15be 2eb3 033d 7311 febc ce88 cebd
000000e0: 948a 053e 9cd0 e4bc 6bc3 29be 681e 813c
000000f0: e525 553d 64e0 873d 6148 2e3e d6b2 8b3d
00000100: ceab a43d 61a5 cf3d 75ed 39be fbf6 f4bd
00000110: 0011 1fbe 7af7 b7bd e801 1ebe ffca c23d
00000120: 98ad 253e 775e aa3d dcb0 263e fddb cf3c
00000130: 11e9 323c da7c c7bc 54f1 25be efa1 43be
00000140: 938b a8bd 37d5 043e 8826 bcbd f29f 27be
00000150: e86e c1bc fbb4 1abe 55fe 0bbd 69dc b8bd
00000160: e57b 8bbd 5e3b 3dbe 3dbf 4abe a631 0bbd
00000170: 47d2 1d3e 6b61 9a3d db4e 82bc a7a7 bdbd
00000180: 6236 213d c2ac ec3c 187f b93c c735 593d
00000190: 2e8f 34be 0061 40be e8dd 4fbe 4b3e ad3d
000001a0: 5c0c b23d 0da1 a03d 1aae 1abe dc99 0bbe
000001b0: 6bf4 1b3e ddad a83d 870b d3bc 4deb 32be
000001c0: 9834 803d 3296 95bd 6670 efbc 35ab b23d
000001d0: a8a5 13be c902 8fbd 2e24 a93d 54fc 58bd
000001e0: 12c0 fd3d 66ac 8f3d 5b07 df3b ce82 2cbe
000001f0: 2234 f83d d4ca 1e3e fe81 2bbc 37a3 323c
00000200: 1c1a cd3c ebc2 293e 3e89 c0bd 191f 1cbe
00000210: b61e e4bb cadd 37be da81 9ebd 1775 eb3c
00000220: d9df f7bc 2265 fabd 1857 f33d a042 9f3d
00000230: 50fa bfbc 9a79 babd 4081 4bbe 82bc e4bd
00000240: 8eed 203e b3d1 07be 5a74 f43c 3df8 0d3e
00000250: ca87 6a3d 281f 80bd f193 103e 6865 2b3e
00000260: bc1a 263d 8088 fa3d a58f ccbd e098 0d3e
00000270: ccc2 e5bd 36c2 1b3e 13fb b5bc 9f24 143e
00000280: cdd5 2ebe 4aca c93d 9683 c13d cf27 b53d
00000290: 0486 3abe 7cb0 03bd e57b 05be 2d87 ecbc
000002a0: a6af 263d db89 a83d 489c 25bc 0c65 34be
000002b0: ef4d 0c3e 8db2 34be 131a ee3d 9e0b 853d
000002c0: e8da 07be 0f67 f63d f491 27be c961 313e
000002d0: 08f1 dfbd 7472 4bbd 782b 1e3e 3301 f13d
000002e0: c2f0 7ebd 78de aabc 3bf2 423e 70da fbbd
000002f0: 2fbe 593c 68f4 f93c 00be c5bd f5f6 edbd
00000300: 4946 193e ca97 1fbd 4bc1 373e b8f6 1dbc
00000310: d200 d6bc 56a4 d2bd f8ec 8fbc afe7 273c
00000320: 3476 853d 2df7 43be 40e6 4238 18b1 bbbd
00000330: 1047 2bbd 9229 74bd a147 40bd 8909 0c3e
00000340: fbab b2bd 04c0 513d 3779 7c3c 0eca 1cbe
00000350: 3daa c5bc d044 bd3d 49dc f63d c6bb 11be
00000360: eb2e 153e 87e6 34be c49e d5bd 4fb4 38be
00000370: 4dcf 86bd 856e 45be b559 80bd 5de7 4cbe
00000380: f713 32bd febd 80bc 5eb6 18be 9a01 2abe
00000390: 8630 eebd e1c5 8d3d d2c2 8abc 88ca 253e
000003a0: 0e96 083e c55a eabd 77b0 59bd e388 2d3e
000003b0: 1e67 26bd dade 45bd 260d 823d 2a46 8cbd
000003c0: cc5b 15be f4d9 40be 09ec b93d 3930 96bd
000003d0: 4175 d93c 2c01 23be dc73 323e cb17 783d
000003e0: 64e5 263e d05c 653d 81e1 ec3d 7a1a 383e
000003f0: d7c1 213e 15a4 de3d 0a7e 1ebd d07c 42be
-0.117721856 0.2018513 -0.027093818 0.13990071 0.07337342 0.117932834 0.057088725 -0.06032439
-0.08014106 -0.04141497 -0.123181514 0.19878794 0.07693337 0.1318387 -0.07502436 0.097684
0.14791267 0.037268896 0.047114845 -0.03788847 -0.10834527 0.17685483 0.08283862 0.08777724
-0.018070992 0.19945769 0.004245904 0.035836454 0.15716437 -0.10146847 -0.2018503 0.08758865
0.09335507 -0.057788186 0.058129326 -0.06613409 0.02968411 0.16366567 0.027170656 0.17736854
0.15550798 -0.003902341 0.13591796 -0.1302261 -0.19217546 -0.038679693 -0.061163813 -0.08684424
-0.031554133 -0.119688116 0.122221306 -0.032251876 -0.14641239 0.0321533 -0.03101418 -0.10084687
0.13041145 -0.027931504 -0.16578452 0.01576157 0.052038092 0.06634596 0.17019798 0.068212196
0.08040582 0.101389654 -0.18156989 -0.1196117 -0.15533829 -0.08982749 -0.15430415 0.09511375
0.16179502 0.08318799 0.16278404 0.025373453 0.010919825 -0.024351526 -0.1620534 -0.19104742
-0.08229747 0.1297196 -0.09187037 -0.16369608 -0.023612455 -0.15108101 -0.034178097 -0.09026415
-0.068107404 -0.18479678 -0.19799514 -0.033982895 0.15412246 0.07538112 -0.015906742 -0.09260493
0.039358504 0.028890971 0.02264361 0.0530298 -0.17632744 -0.18787003 -0.20299494 0.08459147
0.086937636 0.07843218 -0.15105477 -0.13632911 0.15229957 0.08236287 -0.025762333 -0.17472573
0.062600315 -0.07304038 -0.0292284 0.087240614 -0.14418662 -0.06982953 0.08258854 -0.052975014
0.1239015 0.07015304 0.0068062968 -0.16846773 0.121193185 0.1550706 -0.010468004 0.010903171
0.025036864 0.16578262 -0.09401177 -0.15246238 -0.006961669 -0.179557 -0.07739611 0.028742356
-0.030258106 -0.12226321 0.11881846 0.077763796 -0.023434788 -0.09105225 -0.19873524 -0.111687675
0.1571562 -0.13263588 0.029840637 0.13864227 0.057258405 -0.062559426 0.14118935 0.16737902
0.04055284 0.122330666 -0.099883355 0.13827848 -0.11218795 0.15210804 -0.022214448 0.14467095
-0.17073746 0.09853037 0.09448926 0.088454835 -0.18215185 -0.03215073 -0.13035543 -0.02887305
0.040694855 0.08229419 -0.010108061 -0.17616671 0.13701604 -0.17646237 0.11626067 0.064963564
-0.132671 0.120313756 -0.1636427 0.17322458 -0.10934645 -0.049669698 0.1544627 0.11767807
-0.062241323 -0.020858034 0.19037716 -0.12297523 0.013289972 0.03051205 -0.0965538 -0.11619369
0.14968218 -0.038963117 0.17944829 -0.009641342 -0.026123438 -0.10285251 -0.01756905 0.010248109
0.06516686 -0.19137259 4.646764e-05 -0.09164637 -0.041815817 -0.059609957 -0.04694331 0.13675512
-0.08724209 0.05120851 0.015409759 -0.15311453 -0.024129028 0.092416406 0.12053735 -0.14231786
0.14568679 -0.17666064 -0.10430673 -0.18037532 -0.06582508 -0.19280441 -0.0626711 -0.20010133
-0.04347607 -0.015715595 -0.14913318 -0.16602173 -0.11630349 0.06922508 -0.0169386 0.16190541
0.13338491 -0.11443094 -0.053146806 0.1694675 -0.040625684 -0.04830823 0.06350164 -0.0684932
-0.14585799 -0.18833143 0.09078223 -0.073334165 0.026545169 -0.15918416 0.1742701 0.060569566
0.16298443 0.055996716 0.11566449 0.1797885 0.157966 0.1087114 -0.03869442 -0.18992925

decoder.deconv1.bias f4 [3]
00000000: abf3 a73d 1b7b 67bb be67 033e
0.08200773 -0.003532118 0.12832543
