inpainting/models/model_epoch_1.pth (torch, 15939 bytes, 4 tensors)

encoder.conv1.weight f4 [64, 3, 3, 3]
0	0xbd3e0772	-0.04639382
1	0x3e400319	0.18751182
2	0xbe2b5677	-0.16732202
3	0x3d8ce8f7	0.06880372
4	0x3dac4a00	0.08412552
5	0xbc06ec10	-0.008234993
6	0x3d95db38	0.07317203
7	0xbd231e94	-0.039824083
8	0x3de36b70	0.111044765
9	0xbdff33ba	-0.12461038
10	0xbe2806fb	-0.16408913
11	0x3d58388e	0.05278831
12	0x3d9a3cda	0.07531138
13	0xbc5f14fe	-0.013615845
14	0xbda75764	-0.08170965
15	0xbe11773f	-0.14205645
16	0x3e3d1be7	0.18467675
17	0x3d9eae42	0.07748081
18	0xbbd39352	-0.006456771
19	0x3d36f340	0.044665575
20	0xbdc850c3	-0.09781029
21	0x3d3e3570	0.04643768
22	0x3dfc304a	0.12313898
23	0x3e34a064	0.17639309
24	0xbc47ca03	-0.012194159
25	0x3d02860a	0.03186611
26	0xbdf5f8e1	-0.120103605
27	0x3d902eac	0.07040152
28	0xbc835163	-0.01603002
29	0xbd8fc7c4	-0.07020524
30	0xbdfaa41b	-0.12238332
31	0x3e45cba0	0.19315958
32	0x3b4fd224	0.0031710947
33	0xbd0aae6a	-0.03385774
34	0xbcd9e059	-0.026596235
35	0xbe154ab9	-0.14579286
36	0xbd62a757	-0.05533537
37	0x3dbec95c	0.0931575
38	0xbbc54b98	-0.0060209744
39	0x3bdd785a	0.006758732
40	0x3e29a8e2	0.1656833
41	0x3d9060bf	0.07049703
42	0x3d510d4e	0.05103808
43	0xbe052048	-0.13000596
44	0xbe297fd1	-0.16552664
45	0xbe39361d	-0.18087049
46	0x3de801b1	0.113284476
47	0xbd8b708a	-0.068085745
48	0x3e3a286a	0.18179479
49	0xbe08a103	-0.13342671
50	0xbcaafe0d	-0.020873094
51	0xbe3b51f4	-0.18292981
52	0xbdbdeb39	-0.09273381
53	0xbdf796cd	-0.1208931
54	0x3e255a65	0.16147764
55	0x3d155255	0.03645547
56	0xbc9ac654	-0.018893398
57	0x3d9adc29	0.075615235
58	0x3ca3a2d8	0.01997511
59	0xbd2a6723	-0.041602265
60	0x3e3c1f55	0.18371327
61	0xbdd1c5e7	-0.10242825
62	0xbe07214c	-0.13196295
63	0x3d947220	0.0724833
64	0xbe2bbdcc	-0.1677162
65	0x3c0aecc7	0.008479304
66	0x3dadb8b0	0.08482492
67	0x3dd23cbe	0.10265492
68	0xbe11ca6a	-0.14237371
69	0xbc48c40c	-0.0122537725
70	0xbd2c6f2e	-0.042098217
71	0x3db621d4	0.08893171
72	0x3d7127ef	0.058875974
73	0xbe1cac30	-0.1530006
74	0xbdd46d93	-0.10372462
75	0xbd927dfd	-0.071529366
76	0xbd81a603	-0.06330492
77	0x3d1dd469	0.03853265
78	0xbca0923c	-0.01960098
79	0xbcf39112	-0.02973226
80	0xbdd15c7a	-0.10222717
81	0x3d48aed1	0.048994843
82	0xbdaad83c	-0.08342025
83	0xbdc92b91	-0.09822763
84	0x3d39ba2c	0.045343563
85	0xbbbf3d19	-0.005836141
86	0xbe3a66f4	-0.18203336
87	0xbe2ad4dc	-0.16682762
88	0x3e1784cc	0.14796752
89	0x3dd044df	0.10169386
90	0xbb89e5af	-0.0042082886
91	0xbdf6310d	-0.120210744
92	0x3d65462f	0.055975135
93	0xbe1eb4da	-0.15498677
94	0xbd98516a	-0.074374035
95	0x3e10f2a9	0.14155068
96	0xbd1558dc	-0.036461696
97	0x3d2751ef	0.040849622
98	0x3dc95401	0.098304756
99	0xbe219ee5	-0.1578327
100	0x3ddedb1f	0.10881638
101	0x3b96a512	0.0045973146
102	0xbe0fc9a8	-0.1404177
103	0x3d535d22	0.05160249
104	0xbd7a50f2	-0.06111235
105	0x3dcbcd9a	0.09951325
106	0xbd805eb6	-0.06268065
107	0x3e3a40b0	0.18188739
108	0x3e2d6c01	0.16935731
109	0x3d7a5e9d	0.061125387
110	0x3d7cae80	0.061689854
111	0xbd813272	-0.0630845
112	0xbcb3c0ca	-0.021942515
113	0xbde65aa6	-0.112477586
114	0x3de599e9	0.11210997
115	0xbd2dd414	-0.04243858
116	0xbdcd6af8	-0.10030168
117	0xbca50a88	-0.020146623
118	0x3e230df8	0.15923297
119	0xbc639a5a	-0.013891781
120	0x3d21b51d	0.039479364
121	0xbcc549ab	-0.02408298
122	0x3d54a229	0.05191246
123	0x3e3c7cb9	0.18406953
124	0xbe026269	-0.12732853
125	0x3d26c914	0.040719107
126	0x3de2eda1	0.1108048
127	0x3e2ad7b5	0.16683848
128	0x3e00aa29	0.12564911
129	0xbd0bde02	-0.03414727
130	0xbe08e14c	-0.13367194
131	0x3da5aa10	0.080890775
132	0x3d81e16f	0.06341826
133	0xbd98b61d	-0.0745661
134	0x3df8ee41	0.12154818
135	0x3e1df50e	0.15425512
136	0xbe1f3f16	-0.15551409
137	0x3e0ce5c6	0.13759527
138	0xbda9109e	-0.082551226
139	0x3da51bcf	0.08061945
140	0xbda5ecc3	-0.08101799
141	0xbdfc95de	-0.123332724
142	0xbe0dc614	-0.13845092
143	0x3c07947f	0.00827515
144	0x3e379fab	0.17932002
145	0xbd117158	-0.035508484
146	0xbd6d5436	-0.057941638
147	0xbc360a29	-0.011110821
148	0xbd40bb8b	-0.047053855
149	0xbddaae5d	-0.106777884
150	0xbd3a129c	-0.045427904
151	0xbd960f09	-0.073270865
152	0x3d72a0a1	0.05923522
153	0x3dfa7a8f	0.122304074
154	0x3cca01d6	0.024659079
155	0x3dafdd52	0.085871354
156	0x3e0fab9f	0.14030312
157	0x3e2e1ad9	0.17002429
158	0x3dd266d1	0.10273517
159	0xbc9fce09	-0.019507425
160	0x3df07d7a	0.11742683
161	0x3d69327c	0.05693291
162	0x3a9d3459	0.001199375
163	0xbdf28710	-0.118421674
164	0xbd39c20b	-0.04535107
165	0xbe0fd407	-0.14045726
166	0x3e22699f	0.15860604
167	0xbde0295a	-0.10945387
168	0x3d23f424	0.040027753
169	0x3dc75287	0.09732538
170	0x3bfe1860	0.0077543706
171	0x3e10bae2	0.1413379
172	0x3dd9795c	0.106188506
173	0xbd495a70	-0.049158514
174	0x3d92535b	0.07144805
175	0xbc81eaab	-0.015858969
176	0x3e1427ee	0.14468357
177	0x3d6dfc92	0.058102198
178	0x3e22dc84	0.15904433
179	0xbdf5e2c3	-0.12006142
180	0xbcfb17ee	-0.030651059
181	0x3b9b3bb2	0.004737341
182	0x3ceebb9f	0.0291422
183	0x3e377494	0.17915565
184	0x3df0cfa5	0.11758355
185	0xbe3228bd	-0.17398353
186	0xbcab1565	-0.020884225
187	0x3e3ce54a	0.18446842
188	0x3dfafddb	0.1225545
189	0x3dff58fe	0.12468146
190	0xbdf26feb	-0.11837753
191	0x3e05dbca	0.13072124
192	0x3dc125a0	0.094310045
193	0x3dd72abf	0.105062
194	0x3e2020b6	0.15637478
195	0xbe46761e	-0.19380996
196	0x3dd8a6c2	0.105786815
197	0xbd9d7881	-0.07689
198	0xbd34dcb4	-0.04415579
199	0xbe1299c0	-0.14316463
200	0xbdd451de	-0.103671774
201	0x3e2ecc43	0.17070107
202	0x3e394778	0.1809367
203	0xbe18bf9c	-0.14916843
204	0x3d02811a	0.031861402
205	0xbe05ab0c	-0.1305353
206	0xbd9452c2	-0.07242347
207	0x3dcaf996	0.09910886
208	0xbe393688	-0.18087208
209	0x3ddd9f30	0.10821378
210	0x3e0d207a	0.1378192
211	0xbdff331c	-0.1246092
212	0xbc997991	-0.018734725
213	0xba862f32	-0.0010237454
214	0x3c0a7b61	0.008452267
215	0xbe43d420	-0.19123888
216	0x3daabe9c	0.08337137
217	0x3d674674	0.056463674
218	0x3dda9ee5	0.10674838
219	0xbe1b61b9	-0.15173997
220	0xbe3f51d3	-0.18683557
221	0xbe1cc86e	-0.15310833
222	0xbdccd17e	-0.10000895
223	0xbd1048e3	-0.03522576
224	0xbb270f7e	-0.0025491412
225	0xbe1120ba	-0.1417264
226	0x3dacecc6	0.084435984
227	0x3e0bcaad	0.13651533
228	0xbe3d52a2	-0.18488553
229	0xbdd8b39e	-0.10581134
230	0xbdc9713f	-0.09836053
231	0x3e1d9109	0.15387358
232	0x3cf5da1c	0.03001123
233	0x3df196d0	0.11796343
234	0x3db98c35	0.090599455
235	0xbd775659	-0.060385082
236	0x3ca5eb53	0.020253813
237	0x3e09dd74	0.13463384
238	0xbdc9a2a8	-0.09845477
239	0xbc9aff54	-0.018920578
240	0xbd15106d	-0.036392618
241	0xbdb15836	-0.08659403
242	0x3e37678f	0.17910598
243	0xbd7aad68	-0.06120053
244	0xbe3b4733	-0.18288879
245	0xbe013cf8	-0.12620914
246	0xbba9c786	-0.0051812558
247	0xbdde6c0f	-0.10860454
248	0x3d5d4f2a	0.054030575
249	0x3d4d2a15	0.05008896
250	0xbe2477ac	-0.16061276
251	0xbda1850b	-0.07886704
252	0xbd7c9c69	-0.0616726
253	0x3cb06576	0.021532755
254	0xbe3b82b9	-0.18311585
255	0x3c8ad104	0.01694537

encoder.conv1.bias f4 [64]
0	0xbdbfe278	-0.09369367
1	0xbe1a562d	-0.15071936
2	0x3e29316a	0.16522756
3	0x3db524c7	0.08844905
4	0xbddc1673	-0.10746469
5	0xbe2059cb	-0.15659253
6	0xbe2e7104	-0.170353
7	0x3e423fdc	0.18969673
8	0xbd394356	-0.045230232
9	0xbdac901e	-0.08425926
10	0xbde6558e	-0.11246787
11	0xbde04d80	-0.10952282
12	0x3e04c685	0.12966354
13	0xbd15510f	-0.036454257
14	0x3dba3fea	0.09094222
15	0xbe00bd57	-0.12572227
16	0x3d015f57	0.031585064
17	0xbe349447	-0.17634688
18	0xbe10e7bd	-0.14150901
19	0xbd962317	-0.073309116
20	0xbe04746c	-0.12935036
21	0x3e3e747d	0.18599124
22	0xbb7d065e	-0.0038608531
23	0xbc432087	-0.011909611
24	0xbdab0990	-0.08351433
25	0x3df79df2	0.120906726
26	0x3d3a9b25	0.045558114
27	0x3c6e18cc	0.014532279
28	0x3d85ecd3	0.06539311
29	0xbe1e3ac6	-0.15452108
30	0x3dc82408	0.097724974
31	0x3e2aaff6	0.16668686
32	0xbdce43f4	-0.10071555
33	0x3dbdfe8c	0.092770666
34	0x3e435efd	0.19079204
35	0xbde0dfe5	-0.109802045
36	0x3cc2e9f7	0.023793204
37	0xbce6d420	-0.028177321
38	0x3dce8fa6	0.100859925
39	0xbe216bd3	-0.15763788
40	0x3dab5476	0.08365719
41	0x3dccba53	0.09996476
42	0xbb32f47e	-0.0027306373
43	0xbe263f10	-0.16234994
44	0x3da8c82d	0.082413055
45	0xbd4ff783	-0.050773155
46	0x3e25347f	0.16133307
47	0x3d021796	0.031760775
48	0xbe1d90ef	-0.15387319
49	0xbe30efe5	-0.17279013
50	0x3d13cee3	0.036085974
51	0xbd6cc7aa	-0.057807602
52	0x3d858087	0.06518655
53	0xbe1cb22b	-0.1530234
54	0x3d0ab93c	0.03386806
55	0x3da59e70	0.0808686
56	0x3d13ab67	0.036052134
57	0xbc69efc6	-0.014278358
58	0xbda77cbe	-0.081780896
59	0x3c1c3423	0.009533915
60	0x3d7d7e81	0.06188822
61	0xbe1e567e	-0.15462682
62	0xba8d5dcf	-0.0010785403
63	0xbd8bb6b6	-0.06821959

decoder.deconv1.weight f4 [64, 3, 3, 3]
0	0xbe015eb3	-0.12633781
1	0x3e45dac3	0.19321732
2	0xbd11c047	-0.03558376
3	0x3e06439c	0.13111728
4	0x3d84368b	0.06455716
5	0x3ddf9119	0.10916347
6	0x3d45c05e	0.04827916
7	0xbd8da789	-0.069167204
8	0xbdb62e98	-0.08895606
9	0xbd4d9003	-0.05018617
10	0xbe07269a	-0.13198319
11	0x3e428ac9	0.18998255
12	0x3d8b89fe	0.06813429
13	0x3dfbec98	0.12300986
14	0xbdabbdf2	-0.083858386
15	0x3db61557	0.08890789
16	0x3e0e721c	0.13910717
17	0x3ce9208e	0.028457906
18	0x3d1f9df7	0.038969006
19	0xbd3caa51	-0.046060864
20	0xbdee745b	-0.11643287
21	0x3e2caa7d	0.16861911
22	0x3d98b7f5	0.07456962
23	0x3da2f84f	0.07957517
24	0xbcd76647	-0.026293887
25	0x3e43c996	0.19119868
26	0xbb818004	-0.003952028
27	0x3d31ddd6	0.04342445
28	0x3e28b1fc	0.16474146
29	0xbdc04f12	-0.093900815
30	0xbe46ee22	-0.19426778
31	0x3dc2e1ba	0.0951571
32	0x3dceaa3d	0.10091064
33	0xbd4da240	-0.05020356
34	0x3d868b39	0.06569523
35	0xbd6ff7da	-0.05858598
36	0x3d15e6d8	0.036597103
37	0x3e2ea5ef	0.17055486
38	0x3d0b7a3a	0.03405211
39	0x3e3cb3a3	0.18427901
40	0x3e264a70	0.16239333
41	0x3b42e06c	0.0029735817
42	0x3e124aa4	0.14286286
43	0xbdfc8842	-0.123306766
44	0xbe3db730	-0.18526912
45	0xbd00cde9	-0.03144637
46	0xbd5cf9a4	-0.053949013
47	0xbda317b1	-0.07963503
48	0xbcc76d63	-0.024344152
49	0xbde6682d	-0.11250339
50	0x3e0480a8	0.12939703
51	0xbccd54b6	-0.025064807
52	0xbe0e99ae	-0.13925812
53	0x3d20f5a1	0.03929675
54	0xbcbe14bf	-0.023203252
55	0xbdbe7e70	-0.0930146
56	0x3e0d8f52	0.13824204
57	0xbca4ca3d	-0.020115966
58	0xbe21bd57	-0.15794884
59	0x3cc148fc	0.023594372
60	0x3d752f0f	0.05985933
61	0x3d97ee6c	0.07418522
62	0x3e364e11	0.17803217
63	0x3d9aa592	0.07551111
64	0x3db3aaf6	0.087728426
65	0x3ddea13c	0.10870597
66	0xbe327144	-0.1742602
67	0xbde5f164	-0.11227682
68	0xbe178ef7	-0.1480063
69	0xbda8f8b6	-0.08250563
70	0xbe167c55	-0.14695866
71	0x3dd1d445	0.10245565
72	0x3e2d9511	0.16951396
73	0x3dba37c3	0.09092667
74	0x3e2e999e	0.17050788
75	0x3d078e17	0.03309449
76	0x3c98d585	0.018656502
77	0xbc8840b5	-0.016632417
78	0xbe1e0ad1	-0.15433814
79	0xbe3bb843	-0.18332009
80	0xbd98c2a8	-0.07459003
81	0x3e0dc11a	0.13843194
82	0xbdaa4fbd	-0.0831599
83	0xbe1eb401	-0.15498354
84	0xbc73f9ff	-0.014891147
85	0xbe11c6ba	-0.14235964
86	0xbcd0812f	-0.025452225
87	0xbda6f9b3	-0.08153095
88	0xbd73308e	-0.059372477
89	0xbe3447e9	-0.17605557
90	0xbe421b33	-0.18955688
91	0xbcd1261a	-0.025530864
92	0x3e267e38	0.16259086
93	0x3dabbf47	0.08386093
94	0xbbf2d7b8	-0.0074109696
95	0xbdac3870	-0.08409202
96	0x3d440f23	0.047865998
97	0x3d1940c2	0.037415273
98	0x3cff78c0	0.031185508
99	0x3d7c84b0	0.06164998
100	0xbe2bbaa2	-0.16770414
101	0xbe378a64	-0.17923886
102	0xbe47079d	-0.19436498
103	0x3dbeee8b	0.09322842
104	0x3dc3c2cf	0.09558641
105	0x3db255a2	0.087077394
106	0xbe11d129	-0.14239945
107	0xbe02b91f	-0.1276593
108	0x3e14cdf4	0.1453169
109	0x3d9a8560	0.075449705
110	0xbd042f62	-0.03227175
111	0xbe39fcb3	-0.18162803
112	0x3d647a66	0.05578079
113	0xbda2bad3	-0.0794579
114	0xbd11c22d	-0.03558557
115	0x3da5fa28	0.08104354
116	0xbe19592f	-0.14975427
117	0xbd9ebc49	-0.07750756
118	0x3d9960e8	0.074891865
119	0xbd787d5a	-0.06066642
120	0x3dee1f02	0.11627008
121	0x3d80051a	0.06250973
122	0xba5a5baa	-0.0008329699
123	0xbe344294	-0.17603523
124	0x3de8b307	0.11362272
125	0x3e170c17	0.14750706
126	0xbc8fd10e	-0.01755574
127	0x3b7a35e4	0.0038179094
128	0x3c93a2d4	0.018021978
129	0x3e229223	0.15876059
130	0xbdcee41a	-0.10102101
131	0xbe233986	-0.15939912
132	0xbc62ce8e	-0.013843192
133	0xbe3ee32c	-0.18641347
134	0xbdac6259	-0.08417196
135	0x3d18d790	0.03731495
136	0xbcb193ee	-0.021676984
137	0xbde8a7de	-0.11360143
138	0x3e026562	0.12733987
139	0x3db0bc4c	0.08629665
140	0xbc72bd6b	-0.014815669
141	0xbda8e979	-0.082476564
142	0xbe42b6ae	-0.19015
143	0xbdd30471	-0.103035815
144	0x3e18f923	0.14938788
145	0xbe0fd3fb	-0.14045708
146	0x3cb4a8b7	0.022053106
147	0x3e062ac7	0.13102256
148	0x3d4b05ae	0.049565963
149	0xbd8fc871	-0.07020653
150	0x3e094ef1	0.1340902
151	0x3e24046a	0.16017309
152	0x3d08cd91	0.03339917
153	0x3dea2f60	0.11434817
154	0xbddce4af	-0.107858054
155	0x3e05925b	0.13044111
156	0xbdf609fa	-0.12013622
157	0x3e139fdc	0.1441645
158	0xbcf5d0a9	-0.030006723
159	0x3e0c359b	0.13692324
160	0xbe36c4a7	-0.17848454
161	0x3dba4c01	0.09096528
162	0x3db66800	0.08906555
163	0x3dab0410	0.08350384
164	0xbe3de8bf	-0.18545817
165	0xbd1e2c88	-0.038616687
166	0xbe0be7d9	-0.13662662
167	0xbd0c2b34	-0.03422089
168	0x3d0adba7	0.033900883
169	0x3d9ad100	0.07559395
170	0xbc844d85	-0.016150245
171	0xbe3c2fbd	-0.18377586
172	0x3e048068	0.12939608
173	0xbe3c7917	-0.18405567
174	0x3dde6b20	0.10860276
175	0x3d6aa83e	0.057289355
176	0xbe0faf9f	-0.14031838
177	0x3de6b966	0.11265831
178	0xbe2f6e13	-0.17131834
179	0x3e298be4	0.1655727
180	0xbdee72c0	-0.116429806
181	0xbd684bf2	-0.056713052
182	0x3e171386	0.14753541
183	0x3de254e8	0.11051351
184	0xbd8e1574	-0.069376856
185	0xbce46429	-0.027879791
186	0x3e3b97c2	0.1831961
187	0xbe054205	-0.13013466
188	0x3bcc7d1a	0.006240499
189	0x3d218424	0.03943266
190	0xbdb37fd2	-0.08764614
191	0xbddbc349	-0.10730607
192	0x3e22672c	0.1585967
193	0xbcf6474e	-0.030063298
194	0x3e40d880	0.18832588
195	0xba41d220	-0.0007393677
196	0xbc8d3401	-0.017236711
197	0xbdc07d00	-0.09398842
198	0xbc0dc70e	-0.008653415
199	0x3c9cbdfe	0.019133564
200	0x3d979732	0.07401885
201	0xbe3ad91b	-0.18246882
202	0x3c12211f	0.0089190295
203	0xbda9979c	-0.0828087
204	0xbd06e5cd	-0.032934
205	0xbd4fe730	-0.050757587
206	0xbd1c26fe	-0.038123123
207	0x3e1544ec	0.14577073
208	0xbda0401e	-0.078247294
209	0x3d767cb3	0.060177516
210	0x3cc7ffb4	0.024413921
211	0xbe1397a4	-0.14413315
212	0xbc78a369	-0.015175679
213	0x3dcfa8f1	0.10139645
214	0x3e049a19	0.12949409
215	0xbe089710	-0.13338876
216	0x3e1e2d72	0.15447024
217	0xbe2be919	-0.16788138
218	0xbdc3a46d	-0.09552846
219	0xbe2fb795	-0.17159875
220	0xbd69b038	-0.05705282
221	0xbe3c72f9	-0.18403234
222	0xbd5cc2eb	-0.053896826
223	0xbe43ec42	-0.19133094
224	0xbd0e26b5	-0.034704883
225	0xbbec8e58	-0.007219117
226	0xbe100284	-0.1406346
227	0xbe214bb6	-0.15751538
228	0xbddcc72a	-0.10780175
229	0x3d9f30c5	0.07772974
230	0xbc0a0e0d	-0.0084262015
231	0x3e2e8119	0.17041434
232	0x3e114da2	0.14189771
233	0xbdd8e752	-0.10590996
234	0xbd361255	-0.044451077
235	0x3e36704f	0.1781628
236	0xbd02c6e4	-0.031927958
237	0xbd225632	-0.039632984
238	0x3d93d155	0.07217661
239	0xbd74ff07	-0.059813526
240	0xbe0c7d30	-0.1371963
241	0xbe37fb49	-0.17966951
242	0x3dcbacec	0.099450916
243	0xbd85a574	-0.06525698
244	0x3d0dc972	0.03461594
245	0xbe1ac0aa	-0.15112558
246	0x3e3ab892	0.1823447
247	0x3d8c9257	0.068638496
248	0x3e2f25bc	0.17104238
249	0x3d83374c	0.064070314
250	0x3dfd6877	0.12373441
251	0x3e405ba0	0.18784952
252	0x3e29725e	0.16547534
253	0x3dee0293	0.11621585
254	0xbcff9ce1	-0.031202735
255	0xbe3acc30	-0.18241954

decoder.deconv1.bias f4 [3]
0	0x3db96982	0.09053327
1	0x3b9afdba	0.0047299536
2	0x3e0c2759	0.13686885
