inpainting/models/model_epoch_10.pth (torch, 15945 bytes, 4 tensors)

encoder.conv1.weight f4 [64, 3, 3, 3]
00000000: ea5d 01bd fd0f 4f3e 1e49 1cbe 8ed6 a93d
00000010: 17e1 c83d 9277 ba3b abc7 b13d 0340 d8bc
00000020: eac1 fe3d 2cc8 e3bd f86f 1abe e633 873d
00000030: b07d b43d e829 7bba 5c97 8dbd 96c9 04be
00000040: 1e96 493e 1c63 b73d 2996 9a3b 7f91 633d
00000050: 3b04 b2bd e4b5 683d 8a59 083e 13d9 3e3e
00000060: c27a 10bb 52cc 293d 3982 e2bd b53b a43d
00000070: 8a94 cbbb 7386 77bd 31df e6bd 66b1 4f3e
00000080: bcaf 513c abb7 c7bc 493e 8cbc 4b9c 0bbe
00000090: cd58 3abd 53fc d23d 1576 783b 6ddf 863c
000000a0: 3c9a 333e 0d29 a43d befb 773d 06cf f6bd
000000b0: accf 1fbe 364a 2fbe 4fdc fb3d e273 6fbd
000000c0: 83e3 433e e8d3 fdbd 0c91 3bbc d1da 31be
000000d0: 2e0d abbd 9ecc e4bd 9fc9 2c3e 7e02 333d
000000e0: 2966 37bc 1c77 a73d b055 d53c aaea 0ebd
000000f0: 6dce 423e 35c0 c4bd ccf4 ffbd e74e a23d
00000100: d8dd 24be a4ca 803c 75f2 b73d e932 dc3d
00000110: eded 0bbe 7533 e5bb 17e0 17bd 033b c23d
00000120: e4f3 873d 4f20 15be c549 c4bd 896d 89bd
00000130: 2b07 72bd e288 333d 3449 82bc 68d8 d8bc
00000140: 9d09 c8bd 621d fd3c a6f6 cfbd c540 eebd
00000150: be99 df3c aef0 c3bc 5be8 4cbe f13d 3dbe
00000160: b212 053e f564 ab3d 7a50 acbc 125c 0cbe
00000170: 4e5d 203d 96dd 2fbe 4db8 babd 728c ff3d
00000180: 997d 59bd bf00 c63c 3e36 a73d bb3d 31be
00000190: 8278 bf3d 2864 2ebc 814b 1fbe aa02 153d
000001a0: c02f 9cbd b164 ad3d 68f0 9ebd 4107 2b3e
000001b0: af77 323e 3837 823d a70b 783d dfc8 80bd
000001c0: 50e0 c6bc 70a6 f1bd 1af9 dd3d 5bc8 45bd
000001d0: 623e debd 7fd9 71bc f12f 263e e5bd 68bc
000001e0: 49e1 263d fee0 cebc 2d07 433d 05ee 393e
000001f0: e917 07be 211e 0a3d dc97 db3d 847d 233e
00000200: 4ab1 eb3d 5f67 2dbd f287 14be cd3a 893d
00000210: 2050 553d 41da b4bd 7c42 d93d 4781 263e
00000220: 21ff 17be b0db 123e 9006 97bd 82a5 b43d
00000230: 7027 99bd 8d6c eabd 3ff0 05be 4060 703c
00000240: 198f 443e b926 c1bc ef56 3fbd 85c4 fc3a
00000250: 77fb 0dbd a3d9 c2bd 771b 04bd bfae 78bd
00000260: 7aa4 913d ae04 0b3e be49 1a3d c6a9 c93d
00000270: d0bc 1d3e dac0 3b3e 8fcf ec3d ae98 b9bb
00000280: 7dff 053e 5454 8f3d 8a63 85bc d7d0 0bbe
00000290: 3626 83bd 1331 20be 76d3 103e 8687 02be
000002a0: 2b92 d63c 7523 a73d cd21 16bc a34c 023e
000002b0: bed7 b93d 2499 86bd 0b70 793d 5d4a eebc
000002c0: 6eb8 043e 4fbc 563d efd3 183e 2fce 07be
000002d0: ec06 0abd 74e5 15bb a995 9b3c d2ca 3e3e
000002e0: b842 f23d ef6b 37be fc9f c2bb 8931 463e
000002f0: bb19 ff3d 576b d13d 0239 10be becc dd3d
00000300: 1c3f 933d e826 a93d 3926 093e 5256 5dbe
00000310: 92c5 aa3d ea4f cbbd 1129 81bd bc48 26be
00000320: ecd8 fbbd 2e57 1b3e 3a78 253e 81ab 2cbe
00000330: 7a51 543c 2a64 19be 900d bcbd 743a af3d
00000340: 3588 48be c999 bd3d 8e0c fd3d 65b9 0fbe
00000350: 8924 10bd 8ab1 79bc 0154 eebb 1fbd 54be
00000360: 4d16 863d cddb 1d3d 9af0 b53d bac3 2dbe
00000370: 65bd 51be 9c31 2fbe 8797 f1bd 7d05 5abd
00000380: 5057 a8bc d551 22be 7578 8a3d f82d f53d
00000390: 119c 4ebe da60 fbbd e513 ecbd bd46 0c3e
000003a0: 6607 563c b0e6 ce3d 4cfb 9a3d 4f65 9abd
000003b0: 2003 ae3b c4a6 f43d 86e9 e8bd 1bc9 0bbd
000003c0: 5e44 53bd e5aa d0bd 74cd 273e 1acc 3cbd
000003d0: b4c3 2bbe 4b52 e3bd 30fc 1f3c a5ab bfbd
000003e0: 969c 8d3d b109 853d 6b23 15be f49c 82bd
000003f0: 8517 45bd 2310 103d 266d 2dbe 9e8c f73c
-0.031583704 0.20220943 -0.15262267 0.08292876 0.098085575 0.0056905234 0.08680662 -0.02639771
0.1243933 -0.11122164 -0.15081775 0.06601696 0.088130355 -0.00095811347 -0.06913635 -0.12967524
0.19686171 0.089544505 0.0047176075 0.055558678 -0.08692213 0.05681409 0.13315406 0.18637495
-0.0022045826 0.04145462 -0.11059994 0.08019201 -0.0062127756 -0.060430955 -0.11273039 0.20282516
0.012798246 -0.024379572 -0.017119544 -0.1363384 -0.045494843 0.10302033 0.003791218 0.01646396
0.17539304 0.08015642 0.060542814 -0.12051205 -0.15606564 -0.17118153 0.1229788 -0.058460124
0.19129758 -0.123939335 -0.011448156 -0.17368628 -0.08352123 -0.1117184 0.16873787 0.04370355
-0.0111937905 0.08177015 0.026041836 -0.03489176 0.19024058 -0.09606973 -0.12497863 0.07925206
-0.16100252 0.015721627 0.08981792 0.10751898 -0.1366498 -0.0069946595 -0.037078943 0.09483912
0.06638315 -0.14563106 -0.09584383 -0.06710345 -0.059088867 0.043831713 -0.015904047 -0.026470378
-0.097674586 0.0308978 -0.10154466 -0.116334476 0.02729499 -0.023918476 -0.20010512 -0.1848066
0.12995413 0.083688654 -0.021034468 -0.13706997 0.039151482 -0.17174372 -0.09117184 0.1247796
-0.053098295 0.024170278 0.08164643 -0.17308705 0.09349157 -0.010643996 -0.15556146 0.036379494
-0.07626295 0.08466471 -0.077606976 0.16701986 0.17428468 0.063581884 0.060557988 -0.06288313
-0.024276882 -0.117993236 0.10838528 -0.048286777 -0.10851742 -0.014761328 0.16229226 -0.014205431
0.040742192 -0.025253769 0.047614265 0.18157203 -0.13192715 0.03372014 0.10722324 0.15965849
0.115084246 -0.04233491 -0.14504984 0.067006685 0.052078366 -0.08830691 0.10608384 0.16260253
-0.14843418 0.14341617 -0.073742986 0.088206306 -0.07478225 -0.11446486 -0.13079928 0.014671385
0.19195212 -0.023578035 -0.046713766 0.0019284642 -0.034663644 -0.09514167 -0.032252755 -0.060713526
0.071114495 0.13576004 0.037667982 0.09846835 0.15404058 0.18335286 0.11563026 -0.005663953
0.13085742 0.06998506 -0.016282815 -0.13653885 -0.064037725 -0.1564372 0.14143166 -0.1274701
0.026192745 0.0816106 -0.009163332 0.12724547 0.09074353 -0.06572178 0.060897868 -0.029088194
0.1296098 0.05242568 0.14924596 -0.13262247 -0.033698007 -0.002287236 0.018992262 0.18632057
0.11829132 -0.17912267 -0.005939482 0.19354834 0.124560796 0.102255516 -0.14084247 0.10830067
0.071897715 0.08259374 0.13393487 -0.2161496 0.08338465 -0.09927352 -0.06306661 -0.16238683
-0.12297234 0.15169975 0.16159144 -0.16862299 0.012958879 -0.14979616 -0.09182274 0.08556071
-0.19583209 0.09257848 0.1235591 -0.14035566 -0.035191093 -0.0152400825 -0.0072731976 -0.20775269
0.06547222 0.038539696 0.08883782 -0.16969195 -0.20482405 -0.17108768 -0.1179648 -0.05322789
-0.020549446 -0.15851529 0.067612566 0.119716585 -0.20176722 -0.12274332 -0.11527232 0.1369886
0.013063287 0.10102594 0.07567462 -0.07538854 0.005310431 0.119458705 -0.11372666 -0.034127336
-0.051578872 -0.101888455 0.16386968 -0.046093084 -0.16773874 -0.110996805 0.009764716 -0.093589105
0.06914632 0.06495989 -0.14564292 -0.06377593 -0.048118133 0.03517164 -0.16936168 0.030218419

encoder.conv1.bias f4 [64]
00000000: 605c c0bd a9a9 23be 8e0a 273e 562a df3d
00000010: 4a87 bebd 0892 15be 5f89 1cbe c2bf 5e3e
00000020: 68d1 d1bc 8c56 cdbd f82b b5bd d8db 01be
00000030: bf9a 043e 774d 73bc dec9 9c3d 8fb0 cdbd
00000040: e3aa 583d 98dc 42be 92ed f4bd c31e b5bd
00000050: 8089 0dbe 0ea8 303e 1d42 893c 478c afbc
00000060: d698 7bbd b540 113e b582 493d 5c60 ffba
00000070: e7d1 af3d 774c 09be 7847 e73d 0fa8 3f3e
00000080: f006 cabd ff68 f63d c75b 543e 9449 ffbd
00000090: 17b4 413c c24f 50bc 6a8e 003e 0ba7 28be
000000a0: af7a de3d cb6b e53d 1da8 79bc 07b5 27be
000000b0: 4e21 d13d 4437 d1bc 2b13 0c3e adfb 153d
000000c0: 0b71 08be 77fe 13be 1a86 0a3c 5138 17bd
000000d0: 1027 6b3d fda7 26be ff8f 653d 5f10 d83d
000000e0: 5fbd 703d b6fa ccbc a4af 68bd 2a6d b5bb
000000f0: 31db a93d 1375 13be 4dfa aabc bef5 45bd
-0.09392619 -0.15982689 0.1631262 0.10896747 -0.09303148 -0.14606488 -0.15286778 0.21752837
-0.025612548 -0.10026273 -0.08846277 -0.1268152 0.12949656 -0.014850012 0.076556906 -0.100434415
0.052897345 -0.19029462 -0.119593754 -0.08843758 -0.13821983 0.17251608 0.016755158 -0.021429194
-0.061425053 0.1418484 0.049196918 -0.0019483673 0.085849576 -0.13408075 0.112929285 0.18716453
-0.098646045 0.12031745 0.20738135 -0.12465206 0.011822722 -0.012714328 0.12554327 -0.16469972
0.10863244 0.112022005 -0.015237835 -0.1637765 0.102114305 -0.025539048 0.13679187 0.03661697
-0.13324372 -0.1445254 0.008454824 -0.036918942 0.0574103 -0.1627502 0.05604553 0.105499975
0.05877435 -0.025021892 -0.05680813 -0.005536695 0.082937606 -0.14400129 -0.020871306 -0.04833006

decoder.deconv1.weight f4 [64, 3, 3, 3]
00000000: d5ba d9bd 2d65 5a3e 294f 90bc 48bf 1d3e
00000010: 0ac6 b33d a6b8 063e b93d 933d f6ca 38bd
00000020: 68b7 85bd 96fb 17bd 9eac f1bd 3fd9 503e
00000030: d8c6 a93d 580f 0e3e c069 8bbd 328f d33d
00000040: 3141 1e3e 3191 343d b99a 4b3d 4685 0fbd
00000050: 768e dabd 878b 393e b172 b33d b355 bb3d
00000060: f969 65bc a4f5 503e aab4 013c ec80 f53c
00000070: 05fb 1a3e 01ac dbbd 1d9f 54be d1a7 a73d
00000080: 2688 b33d 0b1d 82bd 5de5 563d 6ef4 92bd
00000090: bdfb c73c b445 223e dd1b b43c d74f 303e
000000a0: b901 1a3e 6b5b 13bc 22ce 053e 4fa5 0abe
000000b0: 4f0e 4abe 4b97 37bd 0ba9 89bd d32f bebd
000000c0: 4dd0 19bd a596 00be dc57 ee3d ab32 1cbd
000000d0: cdcf 1bbe 63a8 d83c 0689 1dbd 1fe7 ddbd
000000e0: 6ce6 fb3d 67f5 10bd 4173 31be d9dc 083c
000000f0: ec8b 363d 84fb 703d eeb2 263e 503a 773d
00000100: d294 943d 7abe bf3d 18f4 41be 9d84 02be
00000110: 9a06 27be c918 c8bd 9815 26be c8cb b23d
00000120: a1a9 1b3e 7b4c 963d 9ad9 1c3e 7062 7f3c
00000130: a4a4 943a a6fd 0abd 4ef1 2fbe 419e 4dbe
00000140: d315 bcbd f087 f33d 1a42 d2bd 9fbc 32be
00000150: fd55 0dbd f9dd 25be 57f7 38bd e97a cfbd
00000160: 2428 a2bd b2aa 48be 1914 56be 58f6 38bd
00000170: c332 123e 8c10 833d 1893 e0bc 2c97 d5bd
00000180: 0208 e33c b431 8c3c bcec 2e3c ab59 293d
00000190: f176 40be 8a50 4cbe 94d9 5bbe 4c5a 953d
000001a0: cb08 9a3d ff85 883d 6cb7 26be d9b8 17be
000001b0: cd58 1f3e 468a ae3d 9bf7 cfbc d6e4 2fbe
000001c0: 9b39 853d 0321 95bd 5f37 efbc a506 b13d
000001d0: c8fd 16be 3145 85bd c144 b33d 8925 45bd
000001e0: 483d 033e faa5 983d 0849 363c 83cf 28be
000001f0: d0a5 ff3d e86e 223e 80db aebb 666a 833c
00000200: 7d83 f33c 3e6b 2e3e 9f57 b7bd 0fef 17be
00000210: 1d78 5fbb d85d 34be dc4d 98bd 7e24 5f3c
00000220: 59d9 39bd fed9 0cbe 573a d53d b252 813d
00000230: 6b86 1cbd d17a d8bd a363 5abe 6551 01be
00000240: d787 1b3e 57f4 0cbe 4197 c83c 20aa 063e
00000250: 2e49 4f3d 5b53 8ebd f5fb 053e 7445 213e
00000260: 6a41 fb3c b2a9 063e f0d4 b9bd 52eb 153e
00000270: 28d3 d3bd 92d6 243e 8a20 6bbc 9f28 1b3e
00000280: 829e 27be 2f2d d63d 67fd b23d 0dde a33d
00000290: d453 46be ab39 0dbd 2eee 08be 3223 13bd
000002a0: 99c7 263d cb69 a73d 9438 67bc eac4 2fbe
000002b0: 7f02 113e 514d 30be 6b67 f83d 89a9 8f3d
000002c0: ccde 02be ab4d 003e f43d 22be cd6e 363e
000002d0: a5c5 d3bd e230 34bd 7e49 233e aa41 fe3d
000002e0: a93a 65bd eb7c 7abc 8aa0 493e ccbe eebd
000002f0: 1ed6 9b3c 7a6f 943c b9b9 debd 093b 03be
00000300: d0b4 0c3e a2f7 50bd 52ad 2b3e c493 b2bc
00000310: 72df 1bbd c38b eabd 0de1 00bd 3232 5cbb
00000320: 082c 543d 5101 52be 10ef 5abc 37a0 d6bd
00000330: 81ed 62bd a356 95bd 27d3 75bd d679 fa3d
00000340: 6ccb cfbd 49bd 183d 6dc0 963a 8d23 2bbe
00000350: f2ec 1abd 9e8e a03d 29a7 da3d 4f85 1fbe
00000360: eebf 093e 2a46 40be 5661 ecbd 450a 44be
00000370: 6e59 9dbd 06b9 50be fcf8 96bd d126 58be
00000380: 9836 5fbd 0b70 dcbc 2d2b 24be ba92 35be
00000390: 1b99 02be fd88 6d3d 2f95 e7bc 3730 1a3e
000003a0: 10f1 f93d a8e5 00be 1f30 85bd 1d76 213e
000003b0: 3a87 56bd 1cb0 75bd 58ae 543d 54ef a3bd
000003c0: f328 21be 778d 4cbe 7e88 a23d dab4 a6bd
000003d0: 71d2 973c c520 2bbe 2f25 2a3e c908 573d
000003e0: a0b3 1e3e 91e7 433d eb33 dc3d 99d2 2f3e
000003f0: ab09 1a3e 483f cf3d 5f08 3dbd c73d 4abe
-0.106313385 0.21327658 -0.017615872 0.15405 0.08778007 0.13156375 0.07189507 -0.045115434
-0.065291226 -0.037105165 -0.11800502 0.20395373 0.082898796 0.1387304 -0.068072796 0.10330047
0.15454556 0.044083778 0.049708102 -0.03503921 -0.106717035 0.18119632 0.0876211 0.09147205
-0.014002317 0.20406204 0.007916609 0.029968701 0.15134819 -0.107261665 -0.20763822 0.08186305
0.08766203 -0.06353196 0.05246483 -0.071755275 0.02441203 0.15846902 0.021985942 0.17217956
0.1503972 -0.008993964 0.13066915 -0.13539623 -0.19732021 -0.04482202 -0.067216955 -0.092864655
-0.037552167 -0.12557466 0.116378516 -0.03813426 -0.15215988 0.02644748 -0.038460754 -0.108350985
0.12299809 -0.035390284 -0.17329122 0.008353435 0.044567034 0.058833614 0.16279194 0.060358346
0.07254948 0.093625024 -0.1894077 -0.127459 -0.16311112 -0.097703524 -0.16219175 0.087302744
0.15201427 0.07338806 0.15317383 0.015587434 0.0011340571 -0.033933304 -0.17181894 -0.200799
-0.0918385 0.118911624 -0.10266514 -0.17454766 -0.034505833 -0.16197957 -0.045157757 -0.10130865
-0.079178125 -0.19596365 -0.20906104 -0.045156807 0.14277177 0.063996404 -0.02741389 -0.10429224
0.02771378 0.017113544 0.010676559 0.04134528 -0.18795373 -0.19952598 -0.21469718 0.072926134
0.075212084 0.06666183 -0.16280907 -0.14816608 0.15561219 0.08522467 -0.025386622 -0.17177138
0.06505128 -0.07281687 -0.029201208 0.086438455 -0.14745247 -0.06507338 0.08753348 -0.0481315
0.12816346 0.074535325 0.01112581 -0.1648541 0.12482798 0.1586262 -0.005336225 0.016041946
0.029725784 0.17033097 -0.08952259 -0.14837287 -0.0034098693 -0.17613924 -0.074367255 0.01361954
-0.045373295 -0.13755032 0.10411518 0.06314601 -0.03821413 -0.105703 -0.21327071 -0.12628706
0.15188538 -0.13765083 0.024486186 0.13150835 0.0506069 -0.069494925 0.13084395 0.1574915
0.03067084 0.13150671 -0.09073818 0.14640549 -0.10343009 0.16097477 -0.01435102 0.15152214
-0.1636906 0.10457837 0.08739739 0.08001337 -0.19367915 -0.034478825 -0.13372108 -0.035922237
0.040717695 0.08174475 -0.01411261 -0.1716496 0.14161108 -0.17216994 0.121291004 0.07014758
-0.12780303 0.12529628 -0.15843946 0.17815705 -0.10340432 -0.04399193 0.15946004 0.12414868
-0.055964146 -0.015288572 0.19690147 -0.11657485 0.019022997 0.018119562 -0.108752675 -0.12815489
0.1374085 -0.05101741 0.16765335 -0.021798976 -0.03805489 -0.11452439 -0.031464625 -0.0033599255
0.051799804 -0.20508315 -0.013362661 -0.10479777 -0.055402283 -0.07291915 -0.060015824 0.122302696
-0.101462215 0.03728989 0.0011501439 -0.1671278 -0.037823625 0.07839702 0.106764145 -0.15578197
0.13452122 -0.18776765 -0.11542003 -0.19144543 -0.07683073 -0.20383081 -0.07371709 -0.21108557
-0.054495424 -0.026908895 -0.16032095 -0.17731753 -0.12753718 0.05799197 -0.028269378 0.15057455
0.12204182 -0.12587607 -0.06503319 0.15767713 -0.052375056 -0.059982404 0.05192408 -0.080046326
-0.15738277 -0.1997584 0.0793619 -0.081399634 0.018532963 -0.1671172 0.16615747 0.052498613
0.15498209 0.04782826 0.1075209 0.1717018 0.1504275 0.10119492 -0.04615056 -0.19750129

decoder.deconv1.bias f4 [3]
00000000: 8b69 913d 7760 88bc e9ce eb3d
0.07100209 -0.01664756 0.11514074
