inpainting/models/model_epoch_5.pth (torch, 15939 bytes, 4 tensors)

encoder.conv1.weight f4 [64, 3, 3, 3]
-0.036237992 0.1976529 -0.15717438 0.07883857 0.09413661 0.0017760603 0.08311948 -0.0299087
0.12095055 -0.1146072 -0.15410295 0.06277238 0.08521475 -0.0037372406 -0.07184041 -0.1322306
0.19447064 0.08725712 0.0031690015 0.054245688 -0.088223346 0.055913605 0.13255478 0.18581128
-0.0027988655 0.041193493 -0.110782966 0.07805679 -0.008338739 -0.062508725 -0.114762545 0.20081255
0.010830937 -0.026281232 -0.018992499 -0.13817847 -0.04769944 0.100834504 0.0016644418 0.014367085
0.17332771 0.0781496 0.058596287 -0.1224169 -0.15792546 -0.17327037 0.12093287 -0.060429048
0.18935704 -0.12582329 -0.013260829 -0.17543395 -0.08520304 -0.11334836 0.16871461 0.043832313
-0.011285149 0.08250879 0.027013524 -0.034257967 0.19071183 -0.09530741 -0.12454424 0.07899103
-0.16099492 0.0155267045 0.09070547 0.10877709 -0.13578331 -0.0063272547 -0.035956115 0.09555576
0.065109365 -0.14642887 -0.0967291 -0.06646649 -0.057804722 0.04472933 -0.014927671 -0.024643889
-0.0963259 0.038247403 -0.094179824 -0.1089892 0.034598574 -0.01659417 -0.19279416 -0.17756522
0.1372174 0.09094167 -0.014700783 -0.13071963 0.045463733 -0.16547489 -0.084879495 0.13104188
-0.0469353 0.030359063 0.0878114 -0.16802073 0.098596066 -0.005623952 -0.15059917 0.041388568
-0.07132733 0.0893735 -0.072851144 0.1717162 0.16761687 0.05836727 0.057601936 -0.066859476
-0.026648551 -0.11824051 0.106770284 -0.048496813 -0.10709112 -0.020880874 0.15752256 -0.016891522
0.036880933 -0.02762806 0.047261693 0.17986044 -0.13230947 0.03493443 0.10832946 0.16297506
0.120398946 -0.038747493 -0.13950084 0.074042484 0.05725404 -0.08164362 0.11379333 0.16357103
-0.14642614 0.14643922 -0.07320257 0.08974777 -0.072148524 -0.11401107 -0.12935038 0.017132666
0.18935171 -0.025580982 -0.0481233 -0.0010484571 -0.037090104 -0.096930586 -0.0353712 -0.063309304
0.06909018 0.1324216 0.03469875 0.09583783 0.15043294 0.18007828 0.11271186 -0.00939006
0.12746687 0.06690209 -0.008450995 -0.12829512 -0.055424288 -0.14964508 0.14903799 -0.11931064
0.03147922 0.08819364 -0.0017826224 0.13271333 0.09711743 -0.058596335 0.06388305 -0.02425694
0.1356986 0.052058447 0.15166971 -0.12832108 -0.035789028 -0.0019008634 0.021405486 0.17846924
0.11380973 -0.18008341 -0.016857669 0.18475607 0.11919624 0.11285514 -0.1301993 0.11892121
0.082499355 0.09325635 0.14459008 -0.20560001 0.09400123 -0.08865457 -0.055508424 -0.15453795
-0.11502932 0.15936017 0.16957419 -0.16051805 0.02055298 -0.14186746 -0.08374564 0.0883268
-0.1917875 0.097261935 0.12699035 -0.13557489 -0.029741678 -0.011818399 -0.0024836573 -0.20222516
0.07266044 0.045740515 0.09602306 -0.16246104 -0.19757038 -0.16384593 -0.110731915 -0.04596383
-0.013290922 -0.1522074 0.073937364 0.12601313 -0.19538508 -0.11633056 -0.10888377 0.14337087
0.019487135 0.107434265 0.080459714 -0.070558645 0.010077827 0.124445505 -0.10867807 -0.029144542
-0.046587244 -0.09682444 0.16887507 -0.051065505 -0.17273244 -0.116033785 0.004926604 -0.09847013
0.06419103 0.060181983 -0.15048823 -0.06871273 -0.05191994 0.031322777 -0.17328973 0.026644234
00000000: 4a6e 14bd 8665 4a3e 52f2 20be 1e76 a13d
00000010: b2ca c03d b2ca e83a 8c3a aa3d 1703 f5bc
00000020: ecb4 f73d 2eb7 eabd 2acd 1dbe ce8e 803d
00000030: 1285 ae3d 7eec 74bb 1121 93bd 7567 07be
00000040: 5023 473e dcb3 b23d 06af 4f3b ba30 5e3d
00000050: 71ae b4bd aa05 653d 71bc 073e 5045 3e3e
00000060: 2c6d 37bb 82ba 283d 2ee2 e2bd 3ddc 9f3d
00000070: 359f 08bc 9304 80bd a008 ebbd cea1 4d3e
00000080: 3e74 313c bd4b d7bc 2896 9bbc a87e 0dbe
00000090: 7d60 43bd 5282 ce3d 6629 da3a ec63 6b3c
000000a0: d27c 313e e60c a03d a902 703d b6b5 fabd
000000b0: 36b7 21be ca6d 31be a7ab f73d 7384 77bd
000000c0: d0e6 413e d2d7 00be f343 59bc f5a4 33be
000000d0: ee7e aebd 2f23 e8bd 86c3 2c3e 8389 333d
000000e0: 58e5 38bc 5efa a83d 774b dd3c 1552 0cbd
000000f0: f649 433e 8830 c3bd 0d11 ffbd 0dc6 a13d
00000100: dadb 24be b863 7e3c cac3 b93d 86c6 de3d
00000110: c80a 0bbe dc54 cfbb b846 13bd bdb2 c33d
00000120: 0f58 853d 73f1 15be e819 c6bd 951f 88bd
00000130: a5c4 6cbd 1a36 373d 3193 74bc fbe1 c9bc
00000140: 8346 c5bd 4fa9 1c3d 5ae1 c0bd bb35 dfbd
00000150: 3cb7 0d3d 7ff0 87bc d56b 45be a8d3 35be
00000160: b882 0c3e a03f ba3d 8edb 70bc 5edb 05be
00000170: 2e38 3a3d 4072 29be 4dd5 adbd d82f 063e
00000180: 3b3f 40bd 92b3 f83c 77d6 b33d a00d 2cbe
00000190: bcec c93d 2149 b8bb ab36 1abe 0f87 293d
000001a0: 1014 92bd 7409 b73d fb32 95bd 5fd6 2f3e
000001b0: c2a3 2b3e 8512 6f3d 02f0 6b3d 9fed 88bd
000001c0: 104e dabc 1528 f2bd 61aa da3d 98a4 46bd
000001d0: 9752 dbbd 5e0e abbc 984d 213e 1760 8abc
000001e0: 7610 173d 3e54 e2bc 7a95 413d 562d 383e
000001f0: 227c 07be 6817 0f3d d6db dd3d efe2 263e
00000200: b993 f63d b1b5 1ebd 4fd9 0ebe 96a3 973d
00000210: 3683 6a3d c534 a7bd 7a0c e93d 2a7f 273e
00000220: bcf0 15be 2af4 153e 3beb 95bd aecd b73d
00000230: 9bc2 93bd a37e e9bd 6d74 04be ce59 8c3c
00000240: 6ae5 413e 358f d1bc f01c 45bd 626c 89ba
00000250: cbeb 17bd 8b83 c6bd 64e1 10bd 4fa8 81bd
00000260: 277f 8d3d 8799 073e 4720 0e3d a046 c43d
00000270: 180b 1a3e 7166 383e 7ad5 e63d c4d8 19bc
00000280: ad86 023e f703 893d 0b76 0abc cc5f 03be
00000290: 9404 63bd 8f3c 19be 6a9d 183e 2359 f4bd
000002a0: 5bf0 003d de9e b43d e2a6 e9ba 01e6 073e
000002b0: 81e5 c63d b602 70bd 1ed5 823d 7eb6 c6bc
000002c0: 93f4 0a3e 3d3b 553d 4e4f 1b3e 9a66 03be
000002d0: 8497 12bd 6426 f9ba 8f5a af3c a4c0 363e
000002e0: 1315 e93d c967 38be 1819 8abc b230 3d3e
000002f0: 291d f43d 9820 e73d f752 05be f78c f33d
00000300: 6cf5 a83d 2ffd be3d 6c0f 143e cf88 52be
00000310: b883 c03d 8790 b5bd cd5c 63bd 323f 1ebe
00000320: 7e94 ebbd 502f 233e dba4 2d3e d85e 24be
00000330: b95e a83c b445 11be d682 abbd aee4 b43d
00000340: f163 44be 4431 c73d c209 023e 25d4 0abe
00000350: d2a4 f3bc f5a1 41bc dbc4 22bb 1d14 4fbe
00000360: ffce 943d 685a 3b3d bda7 c43d 305c 26be
00000370: e44f 4abe 3ac7 27be 6ac7 e2bd 9244 3cbd
00000380: 2bc2 59bc 42dc 1bbe 796c 973d 9609 013e
00000390: 0713 48be b73e eebd 74fe debd d0cf 123e
000003a0: 7ca3 9f3c 7f06 dc3d 10c8 a43d 0d81 90bd
000003b0: 781d 253c 49dd fe3d 9c92 debd 89c0 eebc
000003c0: 44d2 3ebd e44b c6bd 96ed 2c3e 102a 51bd
000003d0: c6e0 30be 1fa3 edbd 5a6f a13b b5aa c9bd
000003e0: 9676 833d 6281 763d 9619 1abe 43b9 8cbd
000003f0: 01aa 54bd 504c 003d dd72 31be 0245 da3c

encoder.conv1.bias f4 [64]
-0.086054444 -0.15824331 0.1575141 0.09960675 -0.10005284 -0.14668602 -0.16214474 0.20173718
-0.03421788 -0.09461539 -0.100927934 -0.11982259 0.123401165 -0.025056388 0.08219021 -0.11405364
0.04267521 -0.18586348 -0.1298916 -0.08323177 -0.13587789 0.17648585 0.007296078 -0.008537875
-0.07191926 0.1321649 0.0399625 0.004417353 0.07663963 -0.14314692 0.0987415 0.17781843
-0.10537492 0.1051555 0.20097524 -0.11939341 0.014921324 -0.026607102 0.11274141 -0.16300282
0.095674306 0.10955131 -0.011861716 -0.15518409 0.09342352 -0.03879132 0.14954445 0.027971074
-0.14250429 -0.1608216 0.024193741 -0.049817864 0.07087224 -0.16096784 0.045158055 0.09075822
0.04780096 -0.019675566 -0.06970845 -0.00065403077 0.07311134 -0.15225443 -0.011171432 -0.05775145
00000000: 503d b0bd 890a 22be 604b 213e a0fe cb3d
00000010: 81e8 ccbd dc34 16be 4509 26be 3194 4e3e
00000020: 0c28 0cbd b7c5 c1bd 4eb3 cebd 8c65 f5bd
00000030: c0b9 fc3d 0e43 cdbc 5753 a83d f494 e9bd
00000040: 33cc 2e3d ff52 3ebe 4e02 05be 6b75 aabd
00000050: 9323 0bbe b5b8 343e f013 ef3b 71e2 0bbc
00000060: 684a 93bd 3c56 073e b8af 233d 71bf 903b
00000070: 3df5 9c3d 1b95 12be fc38 ca3d 0916 363e
00000080: cece d7bd c45b d73d 74cc 4d3e 8884 f4bd
00000090: 9278 743c 23f7 d9bc f8e4 e63d 36ea 26be
000000a0: e4f0 c33d 705c e03d a557 42bc 94e8 1ebe
000000b0: d554 bf3d a6e3 1ebd 2e22 193e 9823 e53c
000000c0: a5ec 11be 6bae 24be f431 c63c d10d 4cbd
000000d0: 7725 913d c1d4 24be a7f7 383d 72df b93d
000000e0: f0ca 433d a72e a1bc 4ec3 8ebd 4373 2bba
000000f0: 66bb 953d 96e8 1bbe 6208 37bc c98c 6cbd

decoder.deconv1.weight f4 [64, 3, 3, 3]
-0.11508648 0.20448513 -0.024602126 0.1427005 0.07619076 0.120697856 0.05992047 -0.057465903
-0.07730889 -0.039094876 -0.12080924 0.20115913 0.07934659 0.13430335 -0.07255717 0.10007549
0.15036097 0.03972506 0.049030155 -0.03594982 -0.10650662 0.17890584 0.08492346 0.089782394
-0.016033122 0.2015365 0.006255543 0.034156926 0.15549406 -0.10313374 -0.20351833 0.085932195
0.09170568 -0.059450634 0.056481726 -0.067772105 0.028187972 0.16218323 0.025691247 0.1758826
0.15403678 -0.005369369 0.13441953 -0.13170965 -0.19365357 -0.040353246 -0.06282376 -0.08850019
-0.033207875 -0.12132438 0.120590925 -0.033889253 -0.14802815 0.030543858 -0.032883164 -0.102729954
0.12853612 -0.029802218 -0.16766824 0.01388654 0.050164755 0.06446081 0.16832286 0.066428795
0.07861003 0.099602595 -0.1833547 -0.121409796 -0.1571302 -0.091618806 -0.15610848 0.09331597
0.15974107 0.081122994 0.1607371 0.023318172 0.008855955 -0.026395513 -0.16410655 -0.19310719
-0.084336035 0.12722218 -0.09436652 -0.1661961 -0.026119549 -0.15358888 -0.03669242 -0.092785105
-0.07063103 -0.18732844 -0.20043159 -0.03643045 0.15166047 0.07290936 -0.018391501 -0.095105134
0.036859952 0.026378699 0.020115279 0.050464857 -0.17889176 -0.19044 -0.2055675 0.0820168
0.08435393 0.07584806 -0.15364334 -0.13892902 0.15361474 0.08360397 -0.024898 -0.17349662
0.06374066 -0.07226378 -0.0284843 0.08782573 -0.14408761 -0.06806426 0.084369116 -0.05120803
0.12561767 0.07187704 0.008519796 -0.16681902 0.12283918 0.15670428 -0.008841721 0.012529936
0.026614819 0.16735204 -0.09244946 -0.15094694 -0.0055007953 -0.17811249 -0.07600124 0.025951795
-0.033047866 -0.12509282 0.11605396 0.07500718 -0.026226748 -0.0938415 -0.20151494 -0.114488594
0.15841655 -0.13134862 0.031078415 0.1396394 0.05832353 -0.061548594 0.14157236 0.16785403
0.041018676 0.124574706 -0.09764147 0.14042762 -0.10997292 0.15433182 -0.020084567 0.14672565
-0.16866614 0.10049996 0.094293326 0.08795581 -0.1834335 -0.031512223 -0.12988959 -0.029114403
0.04164188 0.08315417 -0.009825162 -0.17444812 0.13873966 -0.17477278 0.118031144 0.06674682
-0.1309228 0.122079656 -0.16185823 0.17497799 -0.10768754 -0.048039947 0.15601265 0.119396165
-0.060543586 -0.019240243 0.19210406 -0.12126151 0.01492775 0.027834512 -0.09921362 -0.118827425
0.14701472 -0.04161041 0.17682962 -0.012294188 -0.028755503 -0.105455846 -0.020359544 0.0074861506
0.062434655 -0.19414708 -0.0026976736 -0.09435846 -0.044570547 -0.062336516 -0.049640235 0.13388407
-0.09009135 0.048387907 0.012554585 -0.1559467 -0.026930733 0.089585125 0.11772856 -0.14509726
0.14311852 -0.17922387 -0.106868826 -0.18293491 -0.06837947 -0.1953589 -0.06522758 -0.20265311
-0.04602927 -0.01819777 -0.15161534 -0.16851002 -0.11878851 0.06673873 -0.019431205 0.15941359
0.13089022 -0.11693289 -0.055763673 0.16685408 -0.043238424 -0.05090736 0.06090609 -0.07108946
-0.14844652 -0.19091631 0.08819495 -0.07538689 0.024498459 -0.1612203 0.17221458 0.058518905
0.16094303 0.053936824 0.11360743 0.17773919 0.1561003 0.106846966 -0.04055073 -0.191799
00000000: 76b2 ebbd 8d64 513e 668a c9bc 1420 123e
00000010: e709 9c3d 7030 f73d 2b6f 753d 5e61 6bbd
00000020: 2054 9ebd f321 20bd d66a f7bd a9fc 4d3e
00000030: 7780 a23d d186 093e db98 94bd 61f4 cc3d
00000040: 3af8 193e bfb6 223d d8d3 483d 1e40 13bd
00000050: 2520 dabd 1833 373e 5aec ad3d d5df b73d
00000060: e557 83bc 965f 4e3e 4cfb cc3b 22e8 0b3d
00000070: d639 1f3e c837 d3bd 1c67 50be 38fd af3d
00000080: 30d0 bb3d 8282 73bd 6259 673d 1acc 8abd
00000090: 76ea e63c 5c13 263e 7376 d23c 911a 343e
000000a0: d1bb 1d3e 88f1 afbb 46a5 093e e5de 06be
000000b0: 1f4d 46be 7249 25bd bea9 80bd 963f b5bd
000000c0: fb04 08bd eb78 f8bd 60f8 f63d 75cf 0abd
000000d0: b194 17be 1d37 fa3c 7fb0 06bd 1564 d2bd
000000e0: f99e 033e c823 f4bc 39b1 2bbe 5f84 633c
000000f0: 8f79 4d3d 0704 843d d45c 2c3e d20b 883d
00000100: 4cfe a03d 72fc cb3d 56c1 3bbe b3a5 f8bd
00000110: bde6 20be a4a2 bbbd e7da 1fbe 711c bf3d
00000120: 2a93 233e d023 a63d 4498 243e c005 bf3c
00000130: 9118 113c 673b d8bc 8c0b 28be e4bd 45be
00000140: 5fb8 acbd 8846 023e 3c43 c1bd 4f2f 2abe
00000150: aaf8 d5bc 6746 1dbe ca4a 16bd 1e06 bebd
00000160: 00a7 90bd 07d3 3fbe f03d 4dbe 1838 15bd
00000170: e24c 1b3e 8151 953d c6a9 96bc 7bc6 c2bd
00000180: 76fa 163d 2418 d83c ccc8 a43c 3db4 4e3d
00000190: 672f 37be b402 43be 4980 52be 6df8 a73d
000001a0: c1c1 ac3d 3a56 9b3d ae54 1dbe 6943 0ebe
000001b0: 2f4d 1d3e 8f38 ab3d e4f6 cbbc 19a9 31be
000001c0: 778a 823d 08ff 93bd e857 e9bc fadd b33d
000001d0: b48b 13be 4665 8bbd b7c9 ac3d 83bf 51bd
000001e0: eba1 003e 4534 933d 9d96 0b3c 9bd2 2abe
000001f0: 1c93 fb3d 1677 203e dedc 10bc 5c4a 4d3c
00000200: 5207 da3c 555e 2b3e 2456 bdbd d691 1abe
00000210: 0440 b4bb 1f63 36be 8aa6 9bbd dc98 d43c
00000220: 335d 07bd 5518 00be b3ad ed3d 5d9d 993d
00000230: 7ad9 d6bc f92f c0bd ef59 4ebe ff78 eabd
00000240: f337 223e 4180 06be 2998 fe3c a2fd 0e3e
00000250: a7e4 6e3d 611a 7cbd 58f8 103e ede1 2b3e
00000260: 3303 283d 0621 ff3d 40f8 c7bd 42cc 0f3e
00000270: 7b39 e1bd 2909 1e3e 6488 a4bc 403f 163e
00000280: d1b6 2cbe ecd2 cd3d dc1c c13d 2d22 b43d
00000290: fed5 3bbe f612 01bd c701 05be 5481 eebc
000002a0: ad90 2a3d bc4c aa3d b7f9 20bc 87a2 32be
000002b0: c511 0e3e a3f7 32be 50ba f13d 8fb2 883d
000002c0: a010 06be e604 fa3d 2abe 25be 6e2d 333e
000002d0: 498b dcbd 89c5 44bd c8c1 1f3e fa85 f43d
000002e0: 8dfc 77bd b79d 9dbc edb6 443e f457 f8bd
000002f0: 8693 743c 3405 e43c 8330 cbbd cb5b f3bd
00000300: 078b 163e ad6f 2abd d312 353e 906d 49bc
00000310: a990 ebbc 3cf9 d7bd 0fc9 a6bc 624e f53b
00000320: 7bbb 7f3d 7ece 46be 74cb 30bb 023f c1bd
00000330: 9b8f 36bd 9354 7fbd 8f53 4bbd e818 093e
00000340: d081 b8bd 6632 463d bfb1 4d3c 7eb0 1fbe
00000350: d79d dcbc 6878 b73d ac1b f13d 6094 14be
00000360: a98d 123e 7686 37be 0bde dabd 4a53 3bbe
00000370: 890a 8cbd 2a0c 48be 0a96 85bd 4c84 4fbe
00000380: 3089 3cbd 7d13 95bc 0d41 1bbe e48d 2cbe
00000390: 6447 f3bd 51ae 883d 312e 9fbc 513d 233e
000003a0: 1608 063e 837a efbd 7368 64bd ccdb 2a3e
000003b0: c61a 31bd 3c84 50bd aa78 793d 5a97 91bd
000003c0: 5d02 18be 917f 43be 8e9f b43d 7164 9abd
000003d0: feb0 c83c ef16 25be 0559 303e 85b1 6f3d
000003e0: 40ce 243e dcec 5c3d 03ab e83d 4301 363e
000003f0: c2d8 1f3e 95d2 da3d 8618 26bd f566 44be

decoder.deconv1.bias f4 [3]
0.079592876 -0.0060159154 0.12574205
00000000: 9701 a33d 2821 c5bb 86c2 003e
