inpainting/models/model_epoch_6.pth (torch, 15939 bytes, 4 tensors)

encoder.conv1.weight f4 [64, 3, 3, 3]
0	0xbd0e1012	-0.034683295
1	0x3e4bf9b7	0.19919477
2	0xbe1f5d54	-0.15562946
3	0x3da478d3	0.08030858
4	0x3dc3c291	0.09558595
5	0x3b5343b2	0.0032236394
6	0x3dad1e17	0.08453005
7	0xbce9ae5a	-0.02852552
8	0x3dfa85cc	0.12232551
9	0xbde7dee5	-0.11321811
10	0xbe1c64a6	-0.1527277
11	0x3d835ea1	0.064145334
12	0x3db137a9	0.086531945
13	0xbb1ff516	-0.0024407557
14	0xbd907d71	-0.07055176
15	0xbe061c2c	-0.13096684
16	0x3e4867aa	0.19570795
17	0x3db53578	0.08848089
18	0x3b8c5c5b	0.0042834706
19	0x3d629d4e	0.0553258
20	0xbdb276c0	-0.08714056
21	0x3d692b14	0.056925848
22	0x3e08b99e	0.13352057
23	0x3e3f422a	0.18677583
24	0xbaf0b29e	-0.0018363779
25	0x3d2c7410	0.042102873
26	0xbde109f9	-0.1098823
27	0x3da16f33	0.07882538
28	0xbbf7e7b3	-0.0075654625
29	0xbd7ce403	-0.061740886
30	0xbde97f8c	-0.11401281
31	0x3e4e6717	0.20156513
32	0x3c3db4e4	0.011578772
33	0xbcd159f6	-0.025555592
34	0xbc95a2c4	-0.01826609
35	0xbe0cc0de	-0.13745448
36	0xbd4034aa	-0.046925224
37	0x3dd01a28	0.10161239
38	0x3b1f9c32	0.0024354574
39	0x3c77c592	0.015122788
40	0x3e324346	0.17408475
41	0x3da19649	0.07889993
42	0x3d72fe3b	0.059324484
43	0xbdf93858	-0.1216895
44	0xbe20f99a	-0.15720215
45	0xbe30a852	-0.17251709
46	0x3df93761	0.12168766
47	0xbd7476a7	-0.05968347
48	0x3e42a5c4	0.19008547
49	0xbe001936	-0.12509617
50	0xbc4d7d08	-0.012542017
51	0xbe32ef30	-0.17474055
52	0xbdad154f	-0.0845133
53	0xbde6bc1a	-0.11266346
54	0x3e2d0d33	0.16899566
55	0x3d34bfe0	0.0441283
56	0xbc32b22e	-0.010906739
57	0x3da93169	0.08261377
58	0x3cde368c	0.02712562
59	0xbd0b6445	-0.03403117
60	0x3e437140	0.1908617
61	0xbdc2e381	-0.09516049
62	0xbdfe881e	-0.12428306
63	0x3da1fc4b	0.07909449
64	0xbe24bbea	-0.16087309
65	0x3c8108c8	0.015751258
66	0x3db9641d	0.09052298
67	0x3dde6d38	0.108606756
68	0xbe0b0e40	-0.13579655
69	0xbbd4be03	-0.0064923777
70	0xbd13f516	-0.036122404
71	0x3dc3b269	0.095555134
72	0x3d85a5ed	0.065257885
73	0xbe15c4bd	-0.14625831
74	0xbdc5855c	-0.09644577
75	0xbd88d07d	-0.06680391
76	0xbd6e0ef6	-0.058119737
77	0x3d36c33b	0.04461978
78	0xbc7c5571	-0.01540123
79	0xbccdca2d	-0.025120819
80	0xbdc5c1d7	-0.09656113
81	0x3d147fa7	0.03625455
82	0xbdc4f8d0	-0.0961777
83	0xbde34c3f	-0.11098527
84	0x3d059296	0.0326105
85	0xbc9845a2	-0.018587891
86	0xbe477631	-0.1947868
87	0xbe37daf6	-0.1795462
88	0x3e0a79f6	0.13523087
89	0x3db62e9f	0.08895611
90	0xbc876fa3	-0.016532725
91	0xbe07bd32	-0.13255766
92	0x3d32b4fe	0.04362964
93	0xbe2b5098	-0.16729963
94	0xbdb19596	-0.086711094
95	0x3e04507b	0.12921326
96	0xbd47ab11	-0.048747126
97	0x3ce9cd63	0.028540319
98	0x3db01e31	0.085995086
99	0xbe2db57c	-0.16963762
100	0x3dc69640	0.09696627
101	0xbbed6dc0	-0.0072457492
102	0xbe1bdbbd	-0.15220542
103	0x3d22e4a8	0.039768845
104	0xbd956187	-0.072939925
105	0x3db3d062	0.0877998
106	0xbd9872c1	-0.074437626
107	0x3e2e3809	0.17013563
108	0x3e2cdb0a	0.16880432
109	0x3d72a2e7	0.059237387
110	0x3d6d8cb8	0.057995528
111	0xbd87ca79	-0.066304155
112	0xbcd8832a	-0.026429731
113	0xbdf294e4	-0.11844805
114	0x3ddab36d	0.10678754
115	0xbd47bbc5	-0.048763055
116	0xbddc8379	-0.10767264
117	0xbca0df20	-0.019637644
118	0x3e2248b4	0.15848047
119	0xbc861487	-0.01636721
120	0x3d19f98f	0.037591513
121	0xbcdf100d	-0.027229333
122	0x3d4188a7	0.047249462
123	0x3e38639d	0.1800675
124	0xbe078dc7	-0.13237678
125	0x3d0d84fc	0.034550652
126	0x3dde45b4	0.108531386
127	0x3e269ef2	0.1627157
128	0x3df519f0	0.11967838
129	0xbd207025	-0.03916945
130	0xbe0fb87c	-0.14035219
131	0x3d952e15	0.0728418
132	0x3d66f200	0.056383133
133	0xbda9a9ff	-0.08284377
134	0x3de619b2	0.1123537
135	0x3e284800	0.16433716
136	0xbe155737	-0.14584051
137	0x3e165d8c	0.14684123
138	0xbd943e35	-0.072384275
139	0x3db91ffa	0.09039302
140	0xbd92d6a9	-0.071698494
141	0xbde7d0b1	-0.113191016
142	0xbe03cab5	-0.12870295
143	0x3c9029db	0.017598083
144	0x3e433fcf	0.1906731
145	0xbcc77bb4	-0.024350978
146	0xbd407496	-0.046986185
147	0x39a5d389	0.00031628858
148	0xbd12add8	-0.03581032
149	0xbdc418a1	-0.0957501
150	0xbd0b3df9	-0.03399465
151	0xbd7e028b	-0.062014144
152	0x3d8ff6f4	0.070295244
153	0x3e090b88	0.13383305
154	0x3d13a92c	0.036050007
155	0x3dc6ede4	0.09713343
156	0x3e1b848f	0.15187286
157	0x3e39d11d	0.18146177
158	0x3de98c0a	0.114036635
159	0xbc0218e0	-0.007940501
160	0x3e03f39f	0.12885903
161	0x3d8bc26b	0.06824192
162	0xbc27fc8b	-0.010253082
163	0xbe05518e	-0.13019392
164	0xbd6b25cc	-0.057409093
165	0xbe1ae0de	-0.15124843
166	0x3e16cbfc	0.14726251
167	0xbdf83c9b	-0.121209346
168	0x3cf70ec6	0.030158412
169	0x3db16016	0.08660905
170	0xbb67e71c	-0.0035385555
171	0x3e068a11	0.13138606
172	0x3dc3c532	0.095590964
173	0xbd76efef	-0.060287412
174	0x3d811881	0.06303502
175	0xbcd0c75e	-0.02548569
176	0x3e096d27	0.13420545
177	0x3d547574	0.051869825
178	0x3e1a862a	0.15090242
179	0xbe0495f6	-0.1294783
180	0xbd11ba2a	-0.03557793
181	0xbb142d80	-0.0022610128
182	0x3ca8ad57	0.020590467
183	0x3e38523b	0.18000118
184	0x3dea8194	0.11450496
185	0xbe388956	-0.1802114
186	0xbc6e6eb5	-0.014552762
187	0x3e3ef6f7	0.18648897
188	0x3df5d8b4	0.120042235
189	0x3de1cf88	0.110259116
190	0xbe07fc3a	-0.1327981
191	0x3dee3f34	0.11633149
192	0x3da3a726	0.079908654
193	0x3db9acd5	0.09066168
194	0x3e116950	0.1420033
195	0xbe552d68	-0.20818102
196	0x3dbb387b	0.09141632
197	0xbdbad7c8	-0.09123188
198	0xbd6c6b7b	-0.05771969
199	0xbe208b09	-0.15678038
200	0xbdf02d31	-0.117273696
201	0x3e20eaa3	0.15714507
202	0x3e2b574d	0.16732521
203	0xbe26ada4	-0.16277176
204	0x3c965660	0.018351734
205	0xbe138fc6	-0.14410314
206	0xbdb01aa3	-0.085988306
207	0x3db19815	0.086715855
208	0xbe46333d	-0.19355483
209	0x3dc37051	0.09542907
210	0x3e0050a0	0.12530756
211	0xbe0cb784	-0.1374188
212	0xbd01a798	-0.03165397
213	0xbc5d0b97	-0.013491533
214	0xbb8d8925	-0.0043193274
215	0xbe510947	-0.20413695
216	0x3d90cad9	0.0706994
217	0x3d334d4b	0.043774884
218	0x3dc0a1d1	0.09405864
219	0xbe285ff5	-0.16442855
220	0xbe4c5536	-0.1995438
221	0xbe29cc55	-0.16581853
222	0xbde6cf34	-0.112699896
223	0xbd445b8c	-0.04793887
224	0xbc7a1dee	-0.015265925
225	0xbe1db825	-0.15402277
226	0x3d93b16b	0.07211574
227	0x3dfe596f	0.12419402
228	0xbe49f1f4	-0.19721204
229	0xbdf200d3	-0.118165635
230	0xbde2bf6e	-0.110716686
231	0x3e10f0c8	0.14154351
232	0x3c909706	0.017650139
233	0x3dd843f0	0.10559833
234	0x3da1965e	0.078900084
235	0xbd93ba03	-0.07213213
236	0x3c0b6c36	0.008509686
237	0x3dfb9aad	0.122853614
238	0xbde1dd78	-0.1102857
239	0xbcfbde65	-0.030745694
240	0xbd4559d9	-0.04818139
241	0xbdc99878	-0.09843534
242	0x3e2b48e1	0.1672702
243	0xbd4adc12	-0.04952628
244	0xbe2f4b3e	-0.17118546
245	0xbdea72ee	-0.11447702
246	0x3bd3359d	0.0064456
247	0xbdc68836	-0.09693949
248	0x3d86a103	0.06573679
249	0x3d7cb0b9	0.061691973
250	0xbe18899e	-0.14896247
251	0xbd898fdb	-0.067168914
252	0xbd4f54e8	-0.050618082
253	0x3d05b0a0	0.032639146
254	0xbe301513	-0.17195539
255	0x3ce4a1b4	0.027909137

encoder.conv1.bias f4 [64]
0	0xbdb13518	-0.08652705
1	0xbe22bc69	-0.15892185
2	0x3e217b8c	0.15769786
3	0x3dd0ad7d	0.1018934
4	0xbdc8a1b7	-0.0979647
5	0xbe152d03	-0.14567952
6	0xbe239175	-0.15973456
7	0x3e51e0ff	0.20495985
8	0xbd033d6a	-0.03204099
9	0xbdc53610	-0.09629452
10	0xbdc8f190	-0.098116994
11	0xbdf93424	-0.12168148
12	0x3dfdf4f4	0.12400237
13	0xbcb919a8	-0.022595242
14	0x3da5215a	0.08063002
15	0xbde363db	-0.1110303
16	0x3d389fcd	0.045074273
17	0xbe3fbf5b	-0.1872534
18	0xbe0277c2	-0.12740996
19	0xbdadb00f	-0.08480846
20	0xbe0be431	-0.13661267
21	0x3e333292	0.1749976
22	0x3c1d589e	0.0096036475
23	0xbc2bba6f	-0.010481461
24	0xbd8e2885	-0.06941322
25	0x3e09bc6e	0.13450786
26	0x3d28904c	0.041153237
27	0x3b31235b	0.002702913
28	0x3da1a8b2	0.07893504
29	0xbe1035a4	-0.14082962
30	0x3dcfaa0a	0.10139854
31	0x3e386cf0	0.18010306
32	0xbdd61a7c	-0.1045427
33	0x3ddddb80	0.10832882
34	0x3e4f5f19	0.2025112
35	0xbdf79bd7	-0.12090271
36	0x3c60e386	0.013726121
37	0xbcc58693	-0.024112022
38	0x3dec747b	0.115456544
39	0xbe277a82	-0.16355327
40	0x3dc9c265	0.09851531
41	0x3de2a404	0.1106644
42	0xbc55c3ff	-0.013047217
43	0xbe1f8efa	-0.15581885
44	0x3dc3ce0d	0.095607854
45	0xbd12ec5b	-0.035869937
46	0x3e16338f	0.14668106
47	0x3cef0790	0.02917841
48	0xbe0f8ae2	-0.14017823
49	0xbe21533c	-0.15754408
50	0x3cac8deb	0.021063766
51	0xbd40f0be	-0.04710459
52	0x3d8d3dfd	0.06896589
53	0xbe25a986	-0.1617795
54	0x3d436bd7	0.047710266
55	0x3dc03ac4	0.09386209
56	0x3d4e6153	0.050385784
57	0xbca98e3e	-0.02069771
58	0xbd88b943	-0.06675961
59	0xbb1439ab	-0.002261738
60	0x3d9a86af	0.0754522
61	0xbe19f63e	-0.1503534
62	0xbc5c95a6	-0.013463413
63	0xbd634830	-0.055488765

decoder.deconv1.weight f4 [64, 3, 3, 3]
0	0xbde72247	-0.11285835
1	0x3e53addb	0.2067179
2	0xbcb93fd2	-0.02261344
3	0x3e14b6fa	0.14522925
4	0x3da1494e	0.0787531
5	0x3dfc3bcc	0.12316093
6	0x3d80073f	0.06251382
7	0xbd608cf2	-0.054821916
8	0xbd9904c0	-0.07471609
9	0xbd1a0464	-0.037601843
10	0xbdf4251e	-0.11921142
11	0x3e4f9e7a	0.20275298
12	0x3da5f989	0.08104236
13	0x3e0b5e97	0.13610302
14	0xbd90e829	-0.07075531
15	0x3dd05e0f	0.1017419
16	0x3e1bca9c	0.15214008
17	0x3d2a0e9f	0.04151785
18	0x3d4cd2f9	0.050005887
19	0xbd0f14a3	-0.03493179
20	0xbdd862bb	-0.10565706
21	0x3e387372	0.18012789
22	0x3db08e1e	0.08620857
23	0x3dba37b5	0.090926565
24	0xbc72f67c	-0.014829274
25	0x3e4faedc	0.20281547
26	0x3bf2e58b	0.0074126176
27	0x3d068c3b	0.032848578
28	0x3e1de567	0.15419541
29	0xbdd5de46	-0.10442786
30	0xbe51baa6	-0.20481357
31	0x3dad5c65	0.084648885
32	0x3db932c8	0.09042889
33	0xbd78c9a2	-0.060739167
34	0x3d62224b	0.055208486
35	0xbd8d62f8	-0.069036424
36	0x3cdd4de8	0.027014688
37	0x3e24e37f	0.16102408
38	0x3cc8fce1	0.024534645
39	0x3e32ea4f	0.17472194
40	0x3e1c8f81	0.15289117
41	0xbbd55b55	-0.006511132
42	0x3e0871b7	0.13324629
43	0xbe080e75	-0.13286765
44	0xbe477b58	-0.19480646
45	0xbd2acca0	-0.04169905
46	0xbd836350	-0.06415427
47	0xbdb7f6b2	-0.089826
48	0xbd0d703d	-0.034530867
49	0xbdfb2466	-0.12262802
50	0x3df45085	0.119294204
51	0xbd10279b	-0.03519402
52	0xbe18e474	-0.14930898
53	0x3cefc838	0.029270276
54	0xbd0d0757	-0.034430828
55	0xbdd596f7	-0.10429185
56	0x3e0208db	0.1269869
57	0xbd006b03	-0.031352054
58	0xbe2d4adf	-0.16923092
59	0x3c4a24a1	0.012337835
60	0x3d471dad	0.048612285
61	0x3d80d018	0.06289691
62	0x3e2ac6f0	0.16677451
63	0x3d84dffc	0.06488034
64	0x3d9dce13	0.07705321
65	0x3dc8d33d	0.098059155
66	0xbe3d5741	-0.18490316
67	0xbdfbd690	-0.12296784
68	0xbe227c65	-0.15867765
69	0xbdbed23f	-0.09317445
70	0xbe217533	-0.15767364
71	0x3dbbeda7	0.09176188
72	0x3e21abbf	0.15788172
73	0x3da24ff0	0.07925403
74	0x3e22b53e	0.15889451
75	0x3cafc6d6	0.021457117
76	0x3be4fca4	0.006988125
77	0xbce74c64	-0.028234668
78	0xbe29f2f6	-0.16596588
79	0xbe47a675	-0.19497092
80	0xbdb079ad	-0.08616958
81	0x3e000894	0.12503272
82	0xbdc5bdb8	-0.096553266
83	0xbe2c6e06	-0.16838846
84	0xbce801d1	-0.028321179
85	0xbe1f877e	-0.1557903
86	0xbd1f58a2	-0.038902886
87	0xbdc291f0	-0.095004916
88	0xbd95341f	-0.07285332
89	0xbe421c8e	-0.18956205
90	0xbe4f7c28	-0.20262206
91	0xbd1e3fe7	-0.03863516
92	0x3e190570	0.1494348
93	0x3d90bcac	0.07067236
94	0xbca91eec	-0.020644628
95	0xbdc76f20	-0.09737992
96	0x3d0dad22	0.03458894
97	0x3cc55a25	0.024090836
98	0x3c91db50	0.017804772
99	0x3d452c5a	0.048138
100	0xbe399044	-0.18121439
101	0xbe456552	-0.19276932
102	0xbe54e45d	-0.20790239
103	0x3da330ed	0.07968316
104	0x3da7f479	0.08200926
105	0x3d96873b	0.07350012
106	0xbe1fbc9b	-0.15599291
107	0xbe10af10	-0.14129281
108	0x3e1e2cc7	0.15446769
109	0x3dacd011	0.08438123
110	0xbcc90258	-0.02453725
111	0xbe30e013	-0.17272978
112	0x3d83ed69	0.06441767
113	0xbd9368e8	-0.07197744
114	0xbce74c8a	-0.028234739
115	0x3db40f2d	0.08791957
116	0xbe13ef0d	-0.1444666
117	0xbd88da1b	-0.06682225
118	0x3daf6124	0.0856345
119	0xbd4ca32c	-0.0499603
120	0x3e01d685	0.12679489
121	0x3d95a47a	0.07306762
122	0x3c1ee014	0.009696979
123	0xbe29b59a	-0.16573182
124	0x3dfdcca8	0.12392551
125	0x3e218fb3	0.15777473
126	0xbbfb774b	-0.007674133
127	0x3c607425	0.013699566
128	0x3ce31429	0.027719574
129	0x3e2c7c5a	0.16844311
130	0xbdbb1e47	-0.09136634
131	0xbe1985d3	-0.14992456
132	0xbb951f7e	-0.0045508733
133	0xbe356f48	-0.17718232
134	0xbd99df2c	-0.0751327
135	0x3cbe6105	0.023239622
136	0xbd12772a	-0.035758175
137	0xbe02e869	-0.1278397
138	0x3de83832	0.113388434
139	0x3d942d15	0.07235161
140	0xbcece26c	-0.02891656
141	0xbdc5a88d	-0.09651289
142	0xbe511314	-0.20417434
143	0xbdeff5ae	-0.117167816
144	0x3e223080	0.15838814
145	0xbe067cdc	-0.13133568
146	0x3cfe1099	0.031013774
147	0x3e0e9c3c	0.13926786
148	0x3d6dbbfe	0.05804061
149	0xbd7d903b	-0.061905127
150	0x3e0fe3bd	0.14051719
151	0x3e2ae656	0.16689429
152	0x3d24059f	0.040044423
153	0x3e016147	0.12634765
154	0xbdc45879	-0.09587187
155	0x3e11760d	0.14205189
156	0xbdddb3b5	-0.10825292
157	0x3e1fd003	0.15606694
158	0xbc97819c	-0.01849442
159	0x3e17be4b	0.14818685
160	0xbe2b3080	-0.1671772
161	0x3dd090dc	0.1018388
162	0x3dbf8f3b	0.09353491
163	0x3db204f9	0.08692355
164	0xbe3d920a	-0.1851274
165	0xbd00b7ee	-0.03142541
166	0xbe051ab5	-0.12998469
167	0xbcf501d9	-0.029908108
168	0x3d2c5c07	0.04207995
169	0x3dab00bc	0.083497494
170	0xbc25582a	-0.010091821
171	0xbe3168bf	-0.17325114
172	0x3e0f4ddd	0.13994546
173	0xbe31c783	-0.17361264
174	0x3df453c9	0.11930043
175	0x3d8b55e0	0.06803489
176	0xbe04cb67	-0.12968217
177	0x3dfc9be4	0.12334421
178	0xbe246b94	-0.16056663
179	0x3e347516	0.1762279
180	0xbdd9fe0a	-0.10644157
181	0xbd3fd1ff	-0.046831127
182	0x3e20e410	0.15711999
183	0x3df73b07	0.120718054
184	0xbd72adea	-0.05924789
185	0xbc93d914	-0.018047847
186	0x3e4613e5	0.19343527
187	0xbdf5a6b4	-0.11994687
188	0x3c844175	0.016144494
189	0x3cd0242b	0.025407871
190	0xbdd01c0f	-0.10161602
191	0xbdf834f7	-0.12119477
192	0x3e1412c9	0.14460291
193	0xbd3433cf	-0.04399472
194	0x3e32abd3	0.17448358
195	0xbc70a71e	-0.014688281
196	0xbcfef1a6	-0.031121086
197	0xbddcbd4f	-0.10778295
198	0xbcbc48ff	-0.022984026
199	0x3ba08cae	0.004899583
200	0x3d754a3b	0.059885245
201	0xbe497892	-0.196749
202	0xbbac5b13	-0.0052598803
203	0xbdc66989	-0.09688098
204	0xbd4122ac	-0.047152206
205	0xbd84e08a	-0.0648814
206	0xbd55998c	-0.052148387
207	0x3e064eb9	0.13115968
208	0xbdbe06df	-0.09278654
209	0x3d3b51b0	0.0457322
210	0x3c2171c7	0.009853787
211	0xbe226c6b	-0.1586167
212	0xbcf22556	-0.029558819
213	0x3db200a2	0.08691527
214	0x3debb3e5	0.115089215
215	0xbe173d92	-0.14769581
216	0x3e103dd6	0.14086089
217	0xbe39d438	-0.18147361
218	0xbddf78f1	-0.109117396
219	0xbe3da01b	-0.18518107
220	0xbd909fac	-0.07061705
221	0xbe4a56d5	-0.19759686
222	0xbd8a2d37	-0.06746905
223	0xbe51cdbc	-0.20488638
224	0xbd45b159	-0.048264835
225	0xbca74cf7	-0.020422442
226	0xbe1d881f	-0.15383957
227	0xbe2ed7ee	-0.17074558
228	0xbdf7d9c9	-0.12102086
229	0x3d841b9a	0.06450577
230	0xbcb18e73	-0.02167437
231	0x3e20f146	0.15717039
232	0x3e03bb7c	0.12864488
233	0xbdf4196a	-0.1191891
234	0xbd6e224a	-0.05813817
235	0x3e286fa2	0.16448835
236	0xbd3ac8c3	-0.045601618
237	0xbd5a242e	-0.05325716
238	0x3d6fe269	0.05856553
239	0xbd96620d	-0.073429205
240	0xbe1a65dd	-0.1507792
241	0xbe45e08b	-0.19323938
242	0x3dafdcc1	0.08587027
243	0xbd9ddf15	-0.07708565
244	0x3cbad6b6	0.02280746
245	0xbe26ced2	-0.16289833
246	0x3e2e9a6d	0.17051096
247	0x3d68bda6	0.056821488
248	0x3e231442	0.15925696
249	0x3d55eb49	0.05222634
250	0x3de52c34	0.11190072
251	0x3e34445d	0.17604204
252	0x3e1e3e6d	0.15453501
253	0x3dd79f6d	0.10528455
254	0xbd2c741b	-0.042102914
255	0xbe4602b6	-0.19336972

decoder.deconv1.bias f4 [3]
0	0x3d9e9a65	0.07744292
1	0xbc09811e	-0.0083926
2	0x3dfc7f0e	0.12328921
