inpainting/models/model_epoch_8.pth (torch, 15939 bytes, 4 tensors)

encoder.conv1.weight f4 [64, 3, 3, 3]
-0.032660473 0.20118387 -0.15363467 0.08210123 0.09732692 0.004958022 0.08616069 -0.026961403
0.12386859 -0.11171585 -0.151261 0.06560216 0.08784189 -0.0011813543 -0.06931648 -0.12980214
0.19681028 0.089546755 0.0050535356 0.056007892 -0.08645593 0.05743289 0.13391249 0.18715991
-0.0014525714 0.04235769 -0.1096535 0.07973174 -0.006660827 -0.060854305 -0.11314863 0.20242342
0.012420242 -0.02474468 -0.0174649 -0.13666512 -0.045989558 0.10254251 0.0033431835 0.016014723
0.17496595 0.07975889 0.060155142 -0.12087379 -0.15640326 -0.17162754 0.12256272 -0.058837824
0.19091538 -0.12428644 -0.011759563 -0.17398892 -0.08378589 -0.11195565 0.1689613 0.04404802
-0.0108827725 0.08226661 0.026701897 -0.03430112 0.19062924 -0.09549352 -0.12446694 0.0790723
-0.1609777 0.01575226 0.09002173 0.10798639 -0.13623078 -0.0069021503 -0.036685828 0.095184
0.06556278 -0.14609636 -0.09620699 -0.067304015 -0.058818966 0.04412769 -0.016051346 -0.026048774
-0.09724163 0.033101045 -0.0993388 -0.11413995 0.02947437 -0.021733895 -0.19792888 -0.1826592
0.13210748 0.08583554 -0.019261356 -0.13529487 0.040905785 -0.17000356 -0.089426465 0.12650795
-0.05141089 0.02586407 0.08332649 -0.17183807 0.09474761 -0.009434328 -0.15436663 0.037585855
-0.07509731 0.085735455 -0.07652415 0.16806936 0.17152442 0.061377216 0.059223685 -0.064710304
-0.025475206 -0.11834712 0.10739035 -0.048716683 -0.1082791 -0.017072879 0.16051021 -0.0151722655
0.03921226 -0.026199833 0.047468197 0.18078484 -0.13218753 0.034101427 0.108267024 0.16156761
0.11771046 -0.040485088 -0.14245823 0.070124626 0.054375503 -0.085449114 0.10932213 0.16426001
-0.14634177 0.14592092 -0.07229813 0.0900722 -0.07246874 -0.11307639 -0.12899233 0.01689253
0.19200225 -0.023256691 -0.04612731 0.0017852836 -0.034557622 -0.09474994 -0.03247554 -0.060700346
0.07138263 0.13545956 0.03753174 0.09848134 0.15359746 0.18305543 0.11548934 -0.0061718333
0.13049611 0.06975665 -0.013414614 -0.13354044 -0.060918614 -0.15397872 0.14418179 -0.124529876
0.028051829 0.083954796 -0.0065347403 0.12921153 0.093022704 -0.06317886 0.061883662 -0.027416945
0.13174134 0.0521006 0.14996628 -0.13120478 -0.0345738 -0.002311817 0.019672839 0.18335073
0.116459005 -0.17973472 -0.009972216 0.19020689 0.12234103 0.10573829 -0.13732968 0.111814246
0.07539345 0.08612976 0.13748002 -0.21267205 0.086905815 -0.095737405 -0.06105981 -0.16022426
-0.120745696 0.15377493 0.1638399 -0.16629611 0.0150132105 -0.14756228 -0.08949669 0.0851649
-0.19557817 0.09318011 0.12351601 -0.13970591 -0.034178324 -0.015269278 -0.0066021825 -0.2066849
0.06761409 0.040683083 0.090971895 -0.16753048 -0.20265642 -0.16892776 -0.11580305 -0.051056158
-0.018382462 -0.15673523 0.0693946 0.121482536 -0.19995406 -0.12092198 -0.11346526 0.13880062
0.014888411 0.1028408 0.07682601 -0.0742274 0.006436208 0.12069886 -0.112468526 -0.032905843
-0.05033957 -0.10062595 0.16509935 -0.047366243 -0.16901521 -0.11228881 0.008552092 -0.09481405
0.06789286 0.0637743 -0.14685135 -0.06501998 -0.048953403 0.034325514 -0.17023598 0.029481828
00000000: fdc6 05bd 2503 4e3e 6852 1dbe b124 a83d
00000010: 5653 c73d e776 a23b 0475 b03d 29de dcbc
00000020: d1ae fd3d 48cb e4bd 2ae4 1abe 6d5a 863d
00000030: 73e6 b33d acd7 9aba ccf5 8dbd daea 04be
00000040: a288 493e 4a64 b73d 2198 a53b 8868 653d
00000050: ce0f b1bd c03e 6b3d 5b20 093e d9a6 3f3e
00000060: 3564 beba 427f 2d3d 0492 e0bd 654a a33d
00000070: 1143 dabb 5d42 79bd 78ba e7bd 1648 4f3e
00000080: 457e 4b3c 5bb5 cabc 8d12 8fbc f1f1 0bbe
00000090: 8c5f 3cbd cf01 d23d 5019 5b3b 4f31 833c
000000a0: 462a 333e a158 a33d 3d65 763d ad8c f7bd
000000b0: 2d28 20be 21bf 2fbe 2a02 fb3d eeff 70bd
000000c0: 527f 433e e489 febd 2fab 40bc 272a 32be
000000d0: f097 abbd 0149 e5bd 3104 2d3e b26b 343d
000000e0: a84d 32bc 657b a83d f0bd da3c 557f 0cbd
000000f0: 5034 433e 1b92 c3bd 86e8 febd a8f0 a13d
00000100: 57d7 24be e20a 813c 505d b83d f827 dd3d
00000110: 1580 0bbe 6f2b e2bb e143 16bd d4ef c23d
00000120: c745 863d 499a 15be 2c08 c5bd b0d6 89bd
00000130: 28ec 70bd 3dbf 343d 1d7e 83bc 3d64 d5bc
00000140: 9f26 c7bd f694 073d 2472 cbbd 35c2 e9bd
00000150: 3c74 f13c 480b b2bc dead 4abe 030b 3bbe
00000160: 2f47 073e 8bca af3d fec9 9dbc bd8a 0abe
00000170: d38c 273d 6a15 2ebe 3925 b7bd 4d8b 013e
00000180: 3a94 52bd e3e0 d33c 14a7 aa3d 52f6 2fbe
00000190: 090b c23d 7192 1abc 4912 1ebe a0f3 193d
000001a0: 9ecc 99bd 1296 af3d b2b8 9cbd 601a 2c3e
000001b0: 19a4 2f3e ad66 7b3d 8994 723d d686 84bd
000001c0: 61b1 d0bc fa5f f2bd 79ef db3d 258b 47bd
000001d0: 6fc1 ddbd 6cdc 8bbc ca5c 243e 1895 78bc
000001e0: 099d 203d 08a1 d6bc 036e 423d a91f 393e
000001f0: 2b5c 07be f0ad 0b3d 1abb dd3d fb71 253e
00000200: 2f12 f13d b1d3 25bd 92e0 11be 809d 8f3d
00000210: d9b8 5e3d f2ff aebd 48e4 df3d c733 283e
00000220: 9eda 15be 4b6c 153e 0b11 94bd c677 b83d
00000230: 7e6a 94bd 9894 e7bd 9116 04be 3462 8a3c
00000240: 3d9c 443e d184 bebc fdef 3cbd 2d00 ea3a
00000250: 4b8c 0dbd 420c c2bd 1205 05bd eda0 78bd
00000260: 0e31 923d e9b5 0a3e e2ba 193d 96b0 c93d
00000270: a748 1d3e e272 3b3e ad85 ec3d 173d cabb
00000280: c6a0 053e 93dc 8e3d f8c8 5bbc d3be 08be
00000290: cc85 79bd 99ac 1dbe 64a4 133e 8509 ffbd
000002a0: f3cc e53c 7ef0 ab3d 6021 d6bb 0750 043e
000002b0: b082 be3d eb63 81bd b979 7d3d 8099 e0bc
000002c0: 34e7 063e 7067 553d c390 193e 8c5a 06be
000002d0: 429d 0dbd da81 17bb ef28 a13c 4bc0 3b3e
000002e0: 0f82 ee3d 610c 38be 8162 23bc 98c5 423e
000002f0: ef8d fa3d 518d d83d 27a0 0cbe defe e43d
00000300: e267 9a3d cd64 b03d 90c7 0c3e b4c6 59be
00000310: adfb b13d f911 c4bd da19 7abd d411 24be
00000320: 8549 f7bd 2d77 1d3e a6c5 273e 8749 2abe
00000330: f8f9 753c 911a 17be 0a4a b7bd ef6a ae3d
00000340: a545 48be 37d5 be3d f6f5 fc3d 110f 0fbe
00000350: 92fe 0bbd fe2b 7abc 1f57 d8bb 35a5 53be
00000360: 4279 8a3d 4ea3 263d 794f ba3d 1c8d 2bbe
00000370: 2a85 4fbe 66fb 2cbe 262a edbd 4320 51bd
00000380: d196 96bc 337f 20be c21e 8e3d d6cb f83d
00000390: c2c0 4cbe f1a5 f7bd 7960 e8bd c021 0e3e
000003a0: 86ee 733c 339e d23d f556 9d3d 8904 98bd
000003b0: d3e6 d23b f730 f73d e655 e6bd 47c8 06bd
000003c0: dd30 4ebd fa14 cebd ce0f 293e 1b03 42bd
000003d0: 5312 2dbe adf7 e5bd 131e 0c3c de2d c2bd
000003e0: 690b 8b3d 1a9c 823d 3360 16be 3229 85bd
000003f0: 5d83 48bd e998 0c3d 5752 2ebe e083 f13c

encoder.conv1.bias f4 [64]
-0.08953607 -0.15961158 0.15971819 0.10582081 -0.094833665 -0.14509657 -0.1556414 0.21135813
-0.028401908 -0.09875209 -0.09294873 -0.1246495 0.12637393 -0.018326646 0.07817457 -0.10537926
0.04933006 -0.18924475 -0.123085745 -0.08705535 -0.13761345 0.17307986 0.013574768 -0.015640724
-0.065002985 0.13855623 0.044741843 -1.5830563e-05 0.08281651 -0.13698539 0.10714359 0.1840169
-0.10184344 0.11454806 0.20513423 -0.12316888 0.012338848 -0.018482337 0.12067322 -0.16428493
0.103839226 0.11187958 -0.014685534 -0.15914465 0.09926473 -0.030408243 0.14132506 0.03249863
-0.13625321 -0.15087228 0.014645407 -0.0418041 0.063492425 -0.16258457 0.052226294 0.09991081
0.05494737 -0.022866445 -0.061362453 -0.004460954 0.07955296 -0.14672504 -0.01758406 -0.051546723
00000000: b05e b7bd 3871 23be 2a8d 233e 95b8 d83d
00000010: 2738 c2bd 3294 14be 7660 1fbe 446e 583e
00000020: 1eab e8bc 893e cabd e75b bebd 3d48 ffbd
00000030: 2b68 013e c321 96bc fd19 a03d 15d1 d7bd
00000040: 510e 4a3d 60c9 41be 6114 fcbd 134a b2bd
00000050: 8aea 0cbe d93b 313e b468 5e3c fa20 80bc
00000060: 4920 85bd afe1 0d3e 3943 373d e0cb 84b7
00000070: b49b a93d e645 0cbe 196e db3d ed6e 3c3e
00000080: 4b93 d0bd 2c98 ea3d b50e 523e f73f fcbd
00000090: e128 4a3c 4568 97bc 8523 f73d 4f3a 28be
000000a0: a9a9 d43d 1f21 e53d 989b 70bc d1f6 22be
000000b0: 4f4b cb3d b51a f9bc 84b7 103e 491d 053d
000000c0: f685 0bbe 437e 1abe 4af3 6f3c c73a 2bbd
000000d0: 5108 823d 927c 26be 3deb 553d 0a9e cc3d
000000e0: 7e10 613d 6952 bbbc 3257 7bbd 322d 92bb
000000f0: aaec a23d 173f 16be 720c 90bc a822 53bd

decoder.deconv1.weight f4 [64, 3, 3, 3]
-0.10971586 0.20985925 -0.020295296 0.14953747 0.08316066 0.12722489 0.067104 -0.050068703
-0.07012694 -0.036526218 -0.11783402 0.20410754 0.08274082 0.13812289 -0.068730876 0.103325605
0.15408069 0.043509644 0.05047617 -0.03437368 -0.10554119 0.1812357 0.08747335 0.09180479
-0.013813741 0.2040264 0.008295144 0.031046702 0.1524115 -0.10620413 -0.20658652 0.08289764
0.088688575 -0.06249542 0.053479854 -0.07075054 0.025391767 0.15942702 0.022941455 0.17312877
0.15132485 -0.008071117 0.13163318 -0.13445371 -0.1963841 -0.043617778 -0.066041976 -0.09170248
-0.036398258 -0.12445652 0.11748087 -0.037020218 -0.1510881 0.027505556 -0.036793813 -0.10667458
0.1246382 -0.03371882 -0.17161402 0.009991535 0.04624179 0.06051231 0.1644293 0.062357105
0.074528866 0.095568694 -0.18742032 -0.12548842 -0.16117035 -0.09570449 -0.1602079 0.089255996
0.15469864 0.07606509 0.15577269 0.018272195 0.0038040662 -0.031346723 -0.16914393 -0.19814356
-0.08926808 0.12148274 -0.10009784 -0.17195217 -0.03190134 -0.15937176 -0.042512238 -0.09863834
-0.07649568 -0.19323793 -0.20627202 -0.04232142 0.14568947 0.06690815 -0.024450392 -0.10124617
0.030732108 0.020189002 0.013839241 0.044268508 -0.18506572 -0.19663393 -0.2117801 0.07581571
0.07811731 0.069594696 -0.15989587 -0.14522843 0.15498263 0.084726684 -0.025099546 -0.1723657
0.06459711 -0.072605744 -0.028960435 0.08690925 -0.14631854 -0.06547163 0.087047026 -0.048589766
0.12797037 0.074281186 0.010882837 -0.16478871 0.124872126 0.15868865 -0.0061605237 0.015216719
0.029081134 0.16975406 -0.09007381 -0.14876975 -0.003587665 -0.17626314 -0.07434705 0.01799403
-0.04100364 -0.13313681 0.10828264 0.06727011 -0.034046263 -0.101589635 -0.20921685 -0.12222874
0.1558658 -0.13377585 0.028422572 0.13605294 0.05499018 -0.06507754 0.1361789 0.16270266
0.035842054 0.12920071 -0.093030766 0.14453508 -0.10555213 0.15880838 -0.01610393 0.15020332
-0.16508642 0.103582256 0.090571545 0.083519585 -0.18948048 -0.032770973 -0.13169712 -0.03286302
0.04154361 0.08275579 -0.012037235 -0.17198455 0.14123373 -0.17243794 0.120751426 0.06953462
-0.12830047 0.12477891 -0.15905876 0.17763446 -0.104659416 -0.045141358 0.15857242 0.12268361
-0.057348616 -0.0163942 0.19541755 -0.11800564 0.01785488 0.02131187 -0.10564242 -0.12513466
0.14055057 -0.047968306 0.17060427 -0.018697636 -0.03504944 -0.11161713 -0.027598122 0.00038649887
0.055459622 -0.20129831 -0.0097032245 -0.10123127 -0.051659293 -0.06929082 -0.056472387 0.12633249
-0.09753067 0.041093543 0.0050959615 -0.16328654 -0.034117244 0.082242206 0.110503756 -0.15217339
0.13717459 -0.18513809 -0.11278296 -0.18883274 -0.074244775 -0.20123059 -0.07111135 -0.2085058
-0.051895425 -0.02413125 -0.15754524 -0.17448692 -0.12474543 0.060782596 -0.02542959 0.15341128
0.124882676 -0.12298498 -0.06209095 0.16056848 -0.049509477 -0.057134077 0.054721892 -0.07726669
-0.15460327 -0.1970298 0.08207938 -0.079672255 0.020240316 -0.1654367 0.16790693 0.054232694
0.1566932 0.04960163 0.10928531 0.17344753 0.15210842 0.10286636 -0.044499177 -0.19581015
00000000: b5b2 e0bd 58e5 563e 5242 a6bc 5a20 193e
00000010: 2350 aa3d 3e47 023e d26d 893d d714 4dbd
00000020: b79e 8fbd 849c 15bd f652 f1bd 9101 513e
00000030: 0574 a93d 1670 0d3e c6c2 8cbd 609c d33d
00000040: 54c7 1d3e 2b37 323d 1ac0 4e3d 6acb 0cbd
00000050: fb25 d8bd da95 393e 3a25 b33d 2604 bc3d
00000060: 0753 62bc 4cec 503e 5be8 073c a755 fe3c
00000070: c311 1c3e 8d81 d9bd 6b8b 53be 3dc6 a93d
00000080: 5ba2 b53d 33fb 7fbd b10d 5b3d a9e5 90bd
00000090: 6502 d03c d640 233e b8ef bb3c ab48 313e
000000a0: e7f4 1a3e b83c 04bc d9ca 063e 3cae 09be
000000b0: ea18 49be 8ea8 32bd 0441 87bd 83ce bbbd
000000c0: 5716 15bd 0fe3 febd cf99 f03d 83a2 17bd
000000d0: d7b6 1abe 5553 e13c 1cb5 16bd 3478 dabd
000000e0: 5042 ff3d bf1c 0abd 96bb 2fbe 89b3 233c
000000f0: 0868 3d3d c2db 773d 2860 283e 2a6a 7f3d
00000100: 97a2 983d 85b9 c33d 1deb 3fbe 0980 00be
00000110: d709 25be b700 c4bd 8a0d 24be d9cb b63d
00000120: 5269 1e3e 04c8 9b3d e082 1f3e 92af 953c
00000130: a44d 793b 6c65 00bd 1134 2dbe 25e6 4abe
00000140: 2fd2 b6bd f1cb f83d 1900 cdbd 3b14 30be
00000150: fbaa 02bd 5a32 23be 5021 2ebd e602 cabd
00000160: c4a9 9cbd 2ae0 45be f938 53be 3a59 2dbd
00000170: 9f2f 153e 2407 893d 304c c8bc 275a cfbd
00000180: e7c1 fb3c 6863 a53c fcbd 623c e552 353d
00000190: de81 3dbe 685a 49be e2dc 58be 4445 9b3d
000001a0: f8fb 9f3d aa87 8e3d bebb 23be c3b6 14be
000001b0: c4b3 1e3e 2f85 ad3d 909d cdbc a280 30be
000001c0: 7d4b 843d 52b2 94bd 6f3e edbc 7afd b13d
000001d0: 87d4 15be fd15 86bd b645 b23d 1006 47bd
000001e0: aa0a 033e bc20 983d ed4d 323c 5fbe 28be
000001f0: f5bc ff3d 477f 223e 38de c9bb 8c4f 793c
00000200: 8f3b ee3c 02d4 2d3e 9e78 b8bd 1957 18be
00000210: 081f 6bbb 537e 34be 4443 98bd 3768 933c
00000220: 6ff3 27bd 0455 08be 4ac3 dd3d e9c4 893d
00000230: 1874 0bbd 3a0e d0bd f13c 56be 1053 fabd
00000240: 499b 1f3e 89fc 08be 74d6 e83c 7651 0b3e
00000250: 623d 613d 6047 85bd 7b72 0b3e 879b 263e
00000260: 1ecf 123d 314d 043e ea86 bebd 0101 143e
00000270: b72b d8bd aa9e 223e 64ec 83bc e6ce 193e
00000280: 6a0c 29be ef22 d43d 937d b93d 510c ab3d
00000290: 2c07 42be db3a 06bd 9cdb 06be 609b 06bd
000002a0: a229 2a3d de7b a93d d337 45bc b81c 30be
000002b0: 939f 103e 9293 30be 864c f73d 2b68 8e3d
000002c0: 3361 03be 168c ff3d 4de0 22be cfe5 353e
000002d0: ad57 d6bd 25e6 38bd cf60 223e 8b41 fb3d
000002e0: 62e6 6abd 214d 86bc 8a1b 483e f1ac f1bd
000002f0: 6644 923c 3b96 ae3c 0e5b d8bd 4d23 00be
00000300: 7dec 0f3e 6a7a 44bd e3b2 2e3e c92b 99bc
00000310: 0090 0fbd 8697 e4bd 7515 e2bc 00a3 ca39
00000320: a129 633d 2521 4ebe 46fa 1ebc 5752 cfbd
00000330: b298 53bd 58e8 8dbd 974f 67bd 4e5d 013e
00000340: 29be c7bd b451 283d 06fc a63b 9634 27be
00000350: 86be 0bbd 9a6e a83d cb4f e23d 57d3 1bbe
00000360: 7f77 0c3e d794 3dbe c1fa e6bd 5f5d 41be
00000370: a50d 98bd 640f 4ebe d4a2 91bd 8b82 55be
00000380: 4c90 54bd e6ae c5bc 8a53 21be b3ac 32be
00000390: 887a ffbd 2cf7 783d b751 d0bc d917 1d3e
000003a0: 7dc2 ff3d 8ddf fbbd 1453 7ebd 106c 243e
000003b0: 73ca 4abd 6c05 6abd 1024 603d 003e 9ebd
000003c0: 5250 1ebe 2ec2 49be 3c19 a83d 352b a3bd
000003d0: 05cf a53c 3d68 29be cbef 2b3e 1a23 5e3d
000003e0: 2f74 203e 142b 4b3d fad0 df3d 3b9c 313e
000003f0: 4fc2 1b3e 99ab d23d c544 36bd 7582 48be

decoder.deconv1.bias f4 [3]
0.07381515 -0.012762421 0.11889943
00000000: 662c 973d 7919 51bc 8b81 f33d
